{"format": "layers-model", "generatedBy": "keras v2.10.0", "convertedBy": "TensorFlow.js Converter v4.11.0", "modelTopology": {"keras_version": "2.10.0", "backend": "tensorflow", "model_config": {"class_name": "Sequential", "config": {"name": "sequential_3", "layers": [{"class_name": "InputLayer", "config": {"batch_input_shape": [null, 128, 128, 3], "dtype": "float32", "sparse": false, "ragged": false, "name": "inception_v3_input"}}, {"class_name": "Functional", "config": {"name": "inception_v3", "layers": [{"class_name": "InputLayer", "config": {"batch_input_shape": [null, 128, 128, 3], "dtype": "float32", "sparse": false, "ragged": false, "name": "input_4"}, "name": "input_4", "inbound_nodes": []}, {"class_name": "Conv2D", "config": {"name": "conv2d", "trainable": true, "dtype": "float32", "filters": 32, "kernel_size": [3, 3], "strides": [2, 2], "padding": "valid", "data_format": "channels_last", "dilation_rate": [1, 1], "groups": 1, "activation": "linear", "use_bias": false, "kernel_initializer": {"class_name": "GlorotUniform", "config": {"seed": null}}, "bias_initializer": {"class_name": "Zeros", "config": {}}, "kernel_regularizer": null, "bias_regularizer": null, "activity_regularizer": null, "kernel_constraint": null, "bias_constraint": null}, "name": "conv2d", "inbound_nodes": [[["input_4", 0, 0, {}]]]}, {"class_name": "BatchNormalization", "config": {"name": "batch_normalization_3", "trainable": true, "dtype": "float32", "axis": [3], "momentum": 0.99, "epsilon": 0.001, "center": true, "scale": false, "beta_initializer": {"class_name": "Zeros", "config": {}}, "gamma_initializer": {"class_name": "Ones", "config": {}}, "moving_mean_initializer": {"class_name": "Zeros", "config": {}}, "moving_variance_initializer": {"class_name": "Ones", "config": {}}, "beta_regularizer": null, "gamma_regularizer": null, "beta_constraint": null, "gamma_constraint": null}, "name": "batch_normalization_3", "inbound_nodes": [[["conv2d", 0, 0, {}]]]}, {"class_name": "Activation", "config": {"name": "activation_188", "trainable": true, "dtype": "float32", "activation": "relu"}, "name": "activation_188", "inbound_nodes": [[["batch_normalization_3", 0, 0, {}]]]}, {"class_name": "Conv2D", "config": {"name": "conv2d_1", "trainable": true, "dtype": "float32", "filters": 32, "kernel_size": [3, 3], "strides": [1, 1], "padding": "valid", "data_format": "channels_last", "dilation_rate": [1, 1], "groups": 1, "activation": "linear", "use_bias": false, "kernel_initializer": {"class_name": "GlorotUniform", "config": {"seed": null}}, "bias_initializer": {"class_name": "Zeros", "config": {}}, "kernel_regularizer": null, "bias_regularizer": null, "activity_regularizer": null, "kernel_constraint": null, "bias_constraint": null}, "name": "conv2d_1", "inbound_nodes": [[["activation_188", 0, 0, {}]]]}, {"class_name": "BatchNormalization", "config": {"name": "batch_normalization_4", "trainable": true, "dtype": "float32", "axis": [3], "momentum": 0.99, "epsilon": 0.001, "center": true, "scale": false, "beta_initializer": {"class_name": "Zeros", "config": {}}, "gamma_initializer": {"class_name": "Ones", "config": {}}, "moving_mean_initializer": {"class_name": "Zeros", "config": {}}, "moving_variance_initializer": {"class_name": "Ones", "config": {}}, "beta_regularizer": null, "gamma_regularizer": null, "beta_constraint": null, "gamma_constraint": null}, "name": "batch_normalization_4", "inbound_nodes": [[["conv2d_1", 0, 0, {}]]]}, {"class_name": "Activation", "config": {"name": "activation_189", "trainable": true, "dtype": "float32", "activation": "relu"}, "name": "activation_189", "inbound_nodes": [[["batch_normalization_4", 0, 0, {}]]]}, {"class_name": "Conv2D", "config": {"name": "conv2d_2", "trainable": true, "dtype": "float32", "filters": 64, "kernel_size": [3, 3], "strides": [1, 1], "padding": "same", "data_format": "channels_last", "dilation_rate": [1, 1], "groups": 1, "activation": "linear", "use_bias": false, "kernel_initializer": {"class_name": "GlorotUniform", "config": {"seed": null}}, "bias_initializer": {"class_name": "Zeros", "config": {}}, "kernel_regularizer": null, "bias_regularizer": null, "activity_regularizer": null, "kernel_constraint": null, "bias_constraint": null}, "name": "conv2d_2", "inbound_nodes": [[["activation_189", 0, 0, {}]]]}, {"class_name": "BatchNormalization", "config": {"name": "batch_normalization_5", "trainable": true, "dtype": "float32", "axis": [3], "momentum": 0.99, "epsilon": 0.001, "center": true, "scale": false, "beta_initializer": {"class_name": "Zeros", "config": {}}, "gamma_initializer": {"class_name": "Ones", "config": {}}, "moving_mean_initializer": {"class_name": "Zeros", "config": {}}, "moving_variance_initializer": {"class_name": "Ones", "config": {}}, "beta_regularizer": null, "gamma_regularizer": null, "beta_constraint": null, "gamma_constraint": null}, "name": "batch_normalization_5", "inbound_nodes": [[["conv2d_2", 0, 0, {}]]]}, {"class_name": "Activation", "config": {"name": "activation_190", "trainable": true, "dtype": "float32", "activation": "relu"}, "name": "activation_190", "inbound_nodes": [[["batch_normalization_5", 0, 0, {}]]]}, {"class_name": "MaxPooling2D", "config": {"name": "max_pooling2d", "trainable": true, "dtype": "float32", "pool_size": [3, 3], "padding": "valid", "strides": [2, 2], "data_format": "channels_last"}, "name": "max_pooling2d", "inbound_nodes": [[["activation_190", 0, 0, {}]]]}, {"class_name": "Conv2D", "config": {"name": "conv2d_3", "trainable": true, "dtype": "float32", "filters": 80, "kernel_size": [1, 1], "strides": [1, 1], "padding": "valid", "data_format": "channels_last", "dilation_rate": [1, 1], "groups": 1, "activation": "linear", "use_bias": false, "kernel_initializer": {"class_name": "GlorotUniform", "config": {"seed": null}}, "bias_initializer": {"class_name": "Zeros", "config": {}}, "kernel_regularizer": null, "bias_regularizer": null, "activity_regularizer": null, "kernel_constraint": null, "bias_constraint": null}, "name": "conv2d_3", "inbound_nodes": [[["max_pooling2d", 0, 0, {}]]]}, {"class_name": "BatchNormalization", "config": {"name": "batch_normalization_6", "trainable": true, "dtype": "float32", "axis": [3], "momentum": 0.99, "epsilon": 0.001, "center": true, "scale": false, "beta_initializer": {"class_name": "Zeros", "config": {}}, "gamma_initializer": {"class_name": "Ones", "config": {}}, "moving_mean_initializer": {"class_name": "Zeros", "config": {}}, "moving_variance_initializer": {"class_name": "Ones", "config": {}}, "beta_regularizer": null, "gamma_regularizer": null, "beta_constraint": null, "gamma_constraint": null}, "name": "batch_normalization_6", "inbound_nodes": [[["conv2d_3", 0, 0, {}]]]}, {"class_name": "Activation", "config": {"name": "activation_191", "trainable": true, "dtype": "float32", "activation": "relu"}, "name": "activation_191", "inbound_nodes": [[["batch_normalization_6", 0, 0, {}]]]}, {"class_name": "Conv2D", "config": {"name": "conv2d_4", "trainable": true, "dtype": "float32", "filters": 192, "kernel_size": [3, 3], "strides": [1, 1], "padding": "valid", "data_format": "channels_last", "dilation_rate": [1, 1], "groups": 1, "activation": "linear", "use_bias": false, "kernel_initializer": {"class_name": "GlorotUniform", "config": {"seed": null}}, "bias_initializer": {"class_name": "Zeros", "config": {}}, "kernel_regularizer": null, "bias_regularizer": null, "activity_regularizer": null, "kernel_constraint": null, "bias_constraint": null}, "name": "conv2d_4", "inbound_nodes": [[["activation_191", 0, 0, {}]]]}, {"class_name": "BatchNormalization", "config": {"name": "batch_normalization_7", "trainable": true, "dtype": "float32", "axis": [3], "momentum": 0.99, "epsilon": 0.001, "center": true, "scale": false, "beta_initializer": {"class_name": "Zeros", "config": {}}, "gamma_initializer": {"class_name": "Ones", "config": {}}, "moving_mean_initializer": {"class_name": "Zeros", "config": {}}, "moving_variance_initializer": {"class_name": "Ones", "config": {}}, "beta_regularizer": null, "gamma_regularizer": null, "beta_constraint": null, "gamma_constraint": null}, "name": "batch_normalization_7", "inbound_nodes": [[["conv2d_4", 0, 0, {}]]]}, {"class_name": "Activation", "config": {"name": "activation_192", "trainable": true, "dtype": "float32", "activation": "relu"}, "name": "activation_192", "inbound_nodes": [[["batch_normalization_7", 0, 0, {}]]]}, {"class_name": "MaxPooling2D", "config": {"name": "max_pooling2d_1", "trainable": true, "dtype": "float32", "pool_size": [3, 3], "padding": "valid", "strides": [2, 2], "data_format": "channels_last"}, "name": "max_pooling2d_1", "inbound_nodes": [[["activation_192", 0, 0, {}]]]}, {"class_name": "Conv2D", "config": {"name": "conv2d_8", "trainable": true, "dtype": "float32", "filters": 64, "kernel_size": [1, 1], "strides": [1, 1], "padding": "same", "data_format": "channels_last", "dilation_rate": [1, 1], "groups": 1, "activation": "linear", "use_bias": false, "kernel_initializer": {"class_name": "GlorotUniform", "config": {"seed": null}}, "bias_initializer": {"class_name": "Zeros", "config": {}}, "kernel_regularizer": null, "bias_regularizer": null, "activity_regularizer": null, "kernel_constraint": null, "bias_constraint": null}, "name": "conv2d_8", "inbound_nodes": [[["max_pooling2d_1", 0, 0, {}]]]}, {"class_name": "BatchNormalization", "config": {"name": "batch_normalization_11", "trainable": true, "dtype": "float32", "axis": [3], "momentum": 0.99, "epsilon": 0.001, "center": true, "scale": false, "beta_initializer": {"class_name": "Zeros", "config": {}}, "gamma_initializer": {"class_name": "Ones", "config": {}}, "moving_mean_initializer": {"class_name": "Zeros", "config": {}}, "moving_variance_initializer": {"class_name": "Ones", "config": {}}, "beta_regularizer": null, "gamma_regularizer": null, "beta_constraint": null, "gamma_constraint": null}, "name": "batch_normalization_11", "inbound_nodes": [[["conv2d_8", 0, 0, {}]]]}, {"class_name": "Activation", "config": {"name": "activation_196", "trainable": true, "dtype": "float32", "activation": "relu"}, "name": "activation_196", "inbound_nodes": [[["batch_normalization_11", 0, 0, {}]]]}, {"class_name": "Conv2D", "config": {"name": "conv2d_6", "trainable": true, "dtype": "float32", "filters": 48, "kernel_size": [1, 1], "strides": [1, 1], "padding": "same", "data_format": "channels_last", "dilation_rate": [1, 1], "groups": 1, "activation": "linear", "use_bias": false, "kernel_initializer": {"class_name": "GlorotUniform", "config": {"seed": null}}, "bias_initializer": {"class_name": "Zeros", "config": {}}, "kernel_regularizer": null, "bias_regularizer": null, "activity_regularizer": null, "kernel_constraint": null, "bias_constraint": null}, "name": "conv2d_6", "inbound_nodes": [[["max_pooling2d_1", 0, 0, {}]]]}, {"class_name": "Conv2D", "config": {"name": "conv2d_9", "trainable": true, "dtype": "float32", "filters": 96, "kernel_size": [3, 3], "strides": [1, 1], "padding": "same", "data_format": "channels_last", "dilation_rate": [1, 1], "groups": 1, "activation": "linear", "use_bias": false, "kernel_initializer": {"class_name": "GlorotUniform", "config": {"seed": null}}, "bias_initializer": {"class_name": "Zeros", "config": {}}, "kernel_regularizer": null, "bias_regularizer": null, "activity_regularizer": null, "kernel_constraint": null, "bias_constraint": null}, "name": "conv2d_9", "inbound_nodes": [[["activation_196", 0, 0, {}]]]}, {"class_name": "BatchNormalization", "config": {"name": "batch_normalization_9", "trainable": true, "dtype": "float32", "axis": [3], "momentum": 0.99, "epsilon": 0.001, "center": true, "scale": false, "beta_initializer": {"class_name": "Zeros", "config": {}}, "gamma_initializer": {"class_name": "Ones", "config": {}}, "moving_mean_initializer": {"class_name": "Zeros", "config": {}}, "moving_variance_initializer": {"class_name": "Ones", "config": {}}, "beta_regularizer": null, "gamma_regularizer": null, "beta_constraint": null, "gamma_constraint": null}, "name": "batch_normalization_9", "inbound_nodes": [[["conv2d_6", 0, 0, {}]]]}, {"class_name": "BatchNormalization", "config": {"name": "batch_normalization_12", "trainable": true, "dtype": "float32", "axis": [3], "momentum": 0.99, "epsilon": 0.001, "center": true, "scale": false, "beta_initializer": {"class_name": "Zeros", "config": {}}, "gamma_initializer": {"class_name": "Ones", "config": {}}, "moving_mean_initializer": {"class_name": "Zeros", "config": {}}, "moving_variance_initializer": {"class_name": "Ones", "config": {}}, "beta_regularizer": null, "gamma_regularizer": null, "beta_constraint": null, "gamma_constraint": null}, "name": "batch_normalization_12", "inbound_nodes": [[["conv2d_9", 0, 0, {}]]]}, {"class_name": "Activation", "config": {"name": "activation_194", "trainable": true, "dtype": "float32", "activation": "relu"}, "name": "activation_194", "inbound_nodes": [[["batch_normalization_9", 0, 0, {}]]]}, {"class_name": "Activation", "config": {"name": "activation_197", "trainable": true, "dtype": "float32", "activation": "relu"}, "name": "activation_197", "inbound_nodes": [[["batch_normalization_12", 0, 0, {}]]]}, {"class_name": "AveragePooling2D", "config": {"name": "average_pooling2d", "trainable": true, "dtype": "float32", "pool_size": [3, 3], "padding": "same", "strides": [1, 1], "data_format": "channels_last"}, "name": "average_pooling2d", "inbound_nodes": [[["max_pooling2d_1", 0, 0, {}]]]}, {"class_name": "Conv2D", "config": {"name": "conv2d_5", "trainable": true, "dtype": "float32", "filters": 64, "kernel_size": [1, 1], "strides": [1, 1], "padding": "same", "data_format": "channels_last", "dilation_rate": [1, 1], "groups": 1, "activation": "linear", "use_bias": false, "kernel_initializer": {"class_name": "GlorotUniform", "config": {"seed": null}}, "bias_initializer": {"class_name": "Zeros", "config": {}}, "kernel_regularizer": null, "bias_regularizer": null, "activity_regularizer": null, "kernel_constraint": null, "bias_constraint": null}, "name": "conv2d_5", "inbound_nodes": [[["max_pooling2d_1", 0, 0, {}]]]}, {"class_name": "Conv2D", "config": {"name": "conv2d_7", "trainable": true, "dtype": "float32", "filters": 64, "kernel_size": [5, 5], "strides": [1, 1], "padding": "same", "data_format": "channels_last", "dilation_rate": [1, 1], "groups": 1, "activation": "linear", "use_bias": false, "kernel_initializer": {"class_name": "GlorotUniform", "config": {"seed": null}}, "bias_initializer": {"class_name": "Zeros", "config": {}}, "kernel_regularizer": null, "bias_regularizer": null, "activity_regularizer": null, "kernel_constraint": null, "bias_constraint": null}, "name": "conv2d_7", "inbound_nodes": [[["activation_194", 0, 0, {}]]]}, {"class_name": "Conv2D", "config": {"name": "conv2d_10", "trainable": true, "dtype": "float32", "filters": 96, "kernel_size": [3, 3], "strides": [1, 1], "padding": "same", "data_format": "channels_last", "dilation_rate": [1, 1], "groups": 1, "activation": "linear", "use_bias": false, "kernel_initializer": {"class_name": "GlorotUniform", "config": {"seed": null}}, "bias_initializer": {"class_name": "Zeros", "config": {}}, "kernel_regularizer": null, "bias_regularizer": null, "activity_regularizer": null, "kernel_constraint": null, "bias_constraint": null}, "name": "conv2d_10", "inbound_nodes": [[["activation_197", 0, 0, {}]]]}, {"class_name": "Conv2D", "config": {"name": "conv2d_11", "trainable": true, "dtype": "float32", "filters": 32, "kernel_size": [1, 1], "strides": [1, 1], "padding": "same", "data_format": "channels_last", "dilation_rate": [1, 1], "groups": 1, "activation": "linear", "use_bias": false, "kernel_initializer": {"class_name": "GlorotUniform", "config": {"seed": null}}, "bias_initializer": {"class_name": "Zeros", "config": {}}, "kernel_regularizer": null, "bias_regularizer": null, "activity_regularizer": null, "kernel_constraint": null, "bias_constraint": null}, "name": "conv2d_11", "inbound_nodes": [[["average_pooling2d", 0, 0, {}]]]}, {"class_name": "BatchNormalization", "config": {"name": "batch_normalization_8", "trainable": true, "dtype": "float32", "axis": [3], "momentum": 0.99, "epsilon": 0.001, "center": true, "scale": false, "beta_initializer": {"class_name": "Zeros", "config": {}}, "gamma_initializer": {"class_name": "Ones", "config": {}}, "moving_mean_initializer": {"class_name": "Zeros", "config": {}}, "moving_variance_initializer": {"class_name": "Ones", "config": {}}, "beta_regularizer": null, "gamma_regularizer": null, "beta_constraint": null, "gamma_constraint": null}, "name": "batch_normalization_8", "inbound_nodes": [[["conv2d_5", 0, 0, {}]]]}, {"class_name": "BatchNormalization", "config": {"name": "batch_normalization_10", "trainable": true, "dtype": "float32", "axis": [3], "momentum": 0.99, "epsilon": 0.001, "center": true, "scale": false, "beta_initializer": {"class_name": "Zeros", "config": {}}, "gamma_initializer": {"class_name": "Ones", "config": {}}, "moving_mean_initializer": {"class_name": "Zeros", "config": {}}, "moving_variance_initializer": {"class_name": "Ones", "config": {}}, "beta_regularizer": null, "gamma_regularizer": null, "beta_constraint": null, "gamma_constraint": null}, "name": "batch_normalization_10", "inbound_nodes": [[["conv2d_7", 0, 0, {}]]]}, {"class_name": "BatchNormalization", "config": {"name": "batch_normalization_13", "trainable": true, "dtype": "float32", "axis": [3], "momentum": 0.99, "epsilon": 0.001, "center": true, "scale": false, "beta_initializer": {"class_name": "Zeros", "config": {}}, "gamma_initializer": {"class_name": "Ones", "config": {}}, "moving_mean_initializer": {"class_name": "Zeros", "config": {}}, "moving_variance_initializer": {"class_name": "Ones", "config": {}}, "beta_regularizer": null, "gamma_regularizer": null, "beta_constraint": null, "gamma_constraint": null}, "name": "batch_normalization_13", "inbound_nodes": [[["conv2d_10", 0, 0, {}]]]}, {"class_name": "BatchNormalization", "config": {"name": "batch_normalization_14", "trainable": true, "dtype": "float32", "axis": [3], "momentum": 0.99, "epsilon": 0.001, "center": true, "scale": false, "beta_initializer": {"class_name": "Zeros", "config": {}}, "gamma_initializer": {"class_name": "Ones", "config": {}}, "moving_mean_initializer": {"class_name": "Zeros", "config": {}}, "moving_variance_initializer": {"class_name": "Ones", "config": {}}, "beta_regularizer": null, "gamma_regularizer": null, "beta_constraint": null, "gamma_constraint": null}, "name": "batch_normalization_14", "inbound_nodes": [[["conv2d_11", 0, 0, {}]]]}, {"class_name": "Activation", "config": {"name": "activation_193", "trainable": true, "dtype": "float32", "activation": "relu"}, "name": "activation_193", "inbound_nodes": [[["batch_normalization_8", 0, 0, {}]]]}, {"class_name": "Activation", "config": {"name": "activation_195", "trainable": true, "dtype": "float32", "activation": "relu"}, "name": "activation_195", "inbound_nodes": [[["batch_normalization_10", 0, 0, {}]]]}, {"class_name": "Activation", "config": {"name": "activation_198", "trainable": true, "dtype": "float32", "activation": "relu"}, "name": "activation_198", "inbound_nodes": [[["batch_normalization_13", 0, 0, {}]]]}, {"class_name": "Activation", "config": {"name": "activation_199", "trainable": true, "dtype": "float32", "activation": "relu"}, "name": "activation_199", "inbound_nodes": [[["batch_normalization_14", 0, 0, {}]]]}, {"class_name": "Concatenate", "config": {"name": "mixed0", "trainable": true, "dtype": "float32", "axis": 3}, "name": "mixed0", "inbound_nodes": [[["activation_193", 0, 0, {}], ["activation_195", 0, 0, {}], ["activation_198", 0, 0, {}], ["activation_199", 0, 0, {}]]]}, {"class_name": "Conv2D", "config": {"name": "conv2d_15", "trainable": true, "dtype": "float32", "filters": 64, "kernel_size": [1, 1], "strides": [1, 1], "padding": "same", "data_format": "channels_last", "dilation_rate": [1, 1], "groups": 1, "activation": "linear", "use_bias": false, "kernel_initializer": {"class_name": "GlorotUniform", "config": {"seed": null}}, "bias_initializer": {"class_name": "Zeros", "config": {}}, "kernel_regularizer": null, "bias_regularizer": null, "activity_regularizer": null, "kernel_constraint": null, "bias_constraint": null}, "name": "conv2d_15", "inbound_nodes": [[["mixed0", 0, 0, {}]]]}, {"class_name": "BatchNormalization", "config": {"name": "batch_normalization_18", "trainable": true, "dtype": "float32", "axis": [3], "momentum": 0.99, "epsilon": 0.001, "center": true, "scale": false, "beta_initializer": {"class_name": "Zeros", "config": {}}, "gamma_initializer": {"class_name": "Ones", "config": {}}, "moving_mean_initializer": {"class_name": "Zeros", "config": {}}, "moving_variance_initializer": {"class_name": "Ones", "config": {}}, "beta_regularizer": null, "gamma_regularizer": null, "beta_constraint": null, "gamma_constraint": null}, "name": "batch_normalization_18", "inbound_nodes": [[["conv2d_15", 0, 0, {}]]]}, {"class_name": "Activation", "config": {"name": "activation_203", "trainable": true, "dtype": "float32", "activation": "relu"}, "name": "activation_203", "inbound_nodes": [[["batch_normalization_18", 0, 0, {}]]]}, {"class_name": "Conv2D", "config": {"name": "conv2d_13", "trainable": true, "dtype": "float32", "filters": 48, "kernel_size": [1, 1], "strides": [1, 1], "padding": "same", "data_format": "channels_last", "dilation_rate": [1, 1], "groups": 1, "activation": "linear", "use_bias": false, "kernel_initializer": {"class_name": "GlorotUniform", "config": {"seed": null}}, "bias_initializer": {"class_name": "Zeros", "config": {}}, "kernel_regularizer": null, "bias_regularizer": null, "activity_regularizer": null, "kernel_constraint": null, "bias_constraint": null}, "name": "conv2d_13", "inbound_nodes": [[["mixed0", 0, 0, {}]]]}, {"class_name": "Conv2D", "config": {"name": "conv2d_16", "trainable": true, "dtype": "float32", "filters": 96, "kernel_size": [3, 3], "strides": [1, 1], "padding": "same", "data_format": "channels_last", "dilation_rate": [1, 1], "groups": 1, "activation": "linear", "use_bias": false, "kernel_initializer": {"class_name": "GlorotUniform", "config": {"seed": null}}, "bias_initializer": {"class_name": "Zeros", "config": {}}, "kernel_regularizer": null, "bias_regularizer": null, "activity_regularizer": null, "kernel_constraint": null, "bias_constraint": null}, "name": "conv2d_16", "inbound_nodes": [[["activation_203", 0, 0, {}]]]}, {"class_name": "BatchNormalization", "config": {"name": "batch_normalization_16", "trainable": true, "dtype": "float32", "axis": [3], "momentum": 0.99, "epsilon": 0.001, "center": true, "scale": false, "beta_initializer": {"class_name": "Zeros", "config": {}}, "gamma_initializer": {"class_name": "Ones", "config": {}}, "moving_mean_initializer": {"class_name": "Zeros", "config": {}}, "moving_variance_initializer": {"class_name": "Ones", "config": {}}, "beta_regularizer": null, "gamma_regularizer": null, "beta_constraint": null, "gamma_constraint": null}, "name": "batch_normalization_16", "inbound_nodes": [[["conv2d_13", 0, 0, {}]]]}, {"class_name": "BatchNormalization", "config": {"name": "batch_normalization_19", "trainable": true, "dtype": "float32", "axis": [3], "momentum": 0.99, "epsilon": 0.001, "center": true, "scale": false, "beta_initializer": {"class_name": "Zeros", "config": {}}, "gamma_initializer": {"class_name": "Ones", "config": {}}, "moving_mean_initializer": {"class_name": "Zeros", "config": {}}, "moving_variance_initializer": {"class_name": "Ones", "config": {}}, "beta_regularizer": null, "gamma_regularizer": null, "beta_constraint": null, "gamma_constraint": null}, "name": "batch_normalization_19", "inbound_nodes": [[["conv2d_16", 0, 0, {}]]]}, {"class_name": "Activation", "config": {"name": "activation_201", "trainable": true, "dtype": "float32", "activation": "relu"}, "name": "activation_201", "inbound_nodes": [[["batch_normalization_16", 0, 0, {}]]]}, {"class_name": "Activation", "config": {"name": "activation_204", "trainable": true, "dtype": "float32", "activation": "relu"}, "name": "activation_204", "inbound_nodes": [[["batch_normalization_19", 0, 0, {}]]]}, {"class_name": "AveragePooling2D", "config": {"name": "average_pooling2d_1", "trainable": true, "dtype": "float32", "pool_size": [3, 3], "padding": "same", "strides": [1, 1], "data_format": "channels_last"}, "name": "average_pooling2d_1", "inbound_nodes": [[["mixed0", 0, 0, {}]]]}, {"class_name": "Conv2D", "config": {"name": "conv2d_12", "trainable": true, "dtype": "float32", "filters": 64, "kernel_size": [1, 1], "strides": [1, 1], "padding": "same", "data_format": "channels_last", "dilation_rate": [1, 1], "groups": 1, "activation": "linear", "use_bias": false, "kernel_initializer": {"class_name": "GlorotUniform", "config": {"seed": null}}, "bias_initializer": {"class_name": "Zeros", "config": {}}, "kernel_regularizer": null, "bias_regularizer": null, "activity_regularizer": null, "kernel_constraint": null, "bias_constraint": null}, "name": "conv2d_12", "inbound_nodes": [[["mixed0", 0, 0, {}]]]}, {"class_name": "Conv2D", "config": {"name": "conv2d_14", "trainable": true, "dtype": "float32", "filters": 64, "kernel_size": [5, 5], "strides": [1, 1], "padding": "same", "data_format": "channels_last", "dilation_rate": [1, 1], "groups": 1, "activation": "linear", "use_bias": false, "kernel_initializer": {"class_name": "GlorotUniform", "config": {"seed": null}}, "bias_initializer": {"class_name": "Zeros", "config": {}}, "kernel_regularizer": null, "bias_regularizer": null, "activity_regularizer": null, "kernel_constraint": null, "bias_constraint": null}, "name": "conv2d_14", "inbound_nodes": [[["activation_201", 0, 0, {}]]]}, {"class_name": "Conv2D", "config": {"name": "conv2d_17", "trainable": true, "dtype": "float32", "filters": 96, "kernel_size": [3, 3], "strides": [1, 1], "padding": "same", "data_format": "channels_last", "dilation_rate": [1, 1], "groups": 1, "activation": "linear", "use_bias": false, "kernel_initializer": {"class_name": "GlorotUniform", "config": {"seed": null}}, "bias_initializer": {"class_name": "Zeros", "config": {}}, "kernel_regularizer": null, "bias_regularizer": null, "activity_regularizer": null, "kernel_constraint": null, "bias_constraint": null}, "name": "conv2d_17", "inbound_nodes": [[["activation_204", 0, 0, {}]]]}, {"class_name": "Conv2D", "config": {"name": "conv2d_18", "trainable": true, "dtype": "float32", "filters": 64, "kernel_size": [1, 1], "strides": [1, 1], "padding": "same", "data_format": "channels_last", "dilation_rate": [1, 1], "groups": 1, "activation": "linear", "use_bias": false, "kernel_initializer": {"class_name": "GlorotUniform", "config": {"seed": null}}, "bias_initializer": {"class_name": "Zeros", "config": {}}, "kernel_regularizer": null, "bias_regularizer": null, "activity_regularizer": null, "kernel_constraint": null, "bias_constraint": null}, "name": "conv2d_18", "inbound_nodes": [[["average_pooling2d_1", 0, 0, {}]]]}, {"class_name": "BatchNormalization", "config": {"name": "batch_normalization_15", "trainable": true, "dtype": "float32", "axis": [3], "momentum": 0.99, "epsilon": 0.001, "center": true, "scale": false, "beta_initializer": {"class_name": "Zeros", "config": {}}, "gamma_initializer": {"class_name": "Ones", "config": {}}, "moving_mean_initializer": {"class_name": "Zeros", "config": {}}, "moving_variance_initializer": {"class_name": "Ones", "config": {}}, "beta_regularizer": null, "gamma_regularizer": null, "beta_constraint": null, "gamma_constraint": null}, "name": "batch_normalization_15", "inbound_nodes": [[["conv2d_12", 0, 0, {}]]]}, {"class_name": "BatchNormalization", "config": {"name": "batch_normalization_17", "trainable": true, "dtype": "float32", "axis": [3], "momentum": 0.99, "epsilon": 0.001, "center": true, "scale": false, "beta_initializer": {"class_name": "Zeros", "config": {}}, "gamma_initializer": {"class_name": "Ones", "config": {}}, "moving_mean_initializer": {"class_name": "Zeros", "config": {}}, "moving_variance_initializer": {"class_name": "Ones", "config": {}}, "beta_regularizer": null, "gamma_regularizer": null, "beta_constraint": null, "gamma_constraint": null}, "name": "batch_normalization_17", "inbound_nodes": [[["conv2d_14", 0, 0, {}]]]}, {"class_name": "BatchNormalization", "config": {"name": "batch_normalization_20", "trainable": true, "dtype": "float32", "axis": [3], "momentum": 0.99, "epsilon": 0.001, "center": true, "scale": false, "beta_initializer": {"class_name": "Zeros", "config": {}}, "gamma_initializer": {"class_name": "Ones", "config": {}}, "moving_mean_initializer": {"class_name": "Zeros", "config": {}}, "moving_variance_initializer": {"class_name": "Ones", "config": {}}, "beta_regularizer": null, "gamma_regularizer": null, "beta_constraint": null, "gamma_constraint": null}, "name": "batch_normalization_20", "inbound_nodes": [[["conv2d_17", 0, 0, {}]]]}, {"class_name": "BatchNormalization", "config": {"name": "batch_normalization_21", "trainable": true, "dtype": "float32", "axis": [3], "momentum": 0.99, "epsilon": 0.001, "center": true, "scale": false, "beta_initializer": {"class_name": "Zeros", "config": {}}, "gamma_initializer": {"class_name": "Ones", "config": {}}, "moving_mean_initializer": {"class_name": "Zeros", "config": {}}, "moving_variance_initializer": {"class_name": "Ones", "config": {}}, "beta_regularizer": null, "gamma_regularizer": null, "beta_constraint": null, "gamma_constraint": null}, "name": "batch_normalization_21", "inbound_nodes": [[["conv2d_18", 0, 0, {}]]]}, {"class_name": "Activation", "config": {"name": "activation_200", "trainable": true, "dtype": "float32", "activation": "relu"}, "name": "activation_200", "inbound_nodes": [[["batch_normalization_15", 0, 0, {}]]]}, {"class_name": "Activation", "config": {"name": "activation_202", "trainable": true, "dtype": "float32", "activation": "relu"}, "name": "activation_202", "inbound_nodes": [[["batch_normalization_17", 0, 0, {}]]]}, {"class_name": "Activation", "config": {"name": "activation_205", "trainable": true, "dtype": "float32", "activation": "relu"}, "name": "activation_205", "inbound_nodes": [[["batch_normalization_20", 0, 0, {}]]]}, {"class_name": "Activation", "config": {"name": "activation_206", "trainable": true, "dtype": "float32", "activation": "relu"}, "name": "activation_206", "inbound_nodes": [[["batch_normalization_21", 0, 0, {}]]]}, {"class_name": "Concatenate", "config": {"name": "mixed1", "trainable": true, "dtype": "float32", "axis": 3}, "name": "mixed1", "inbound_nodes": [[["activation_200", 0, 0, {}], ["activation_202", 0, 0, {}], ["activation_205", 0, 0, {}], ["activation_206", 0, 0, {}]]]}, {"class_name": "Conv2D", "config": {"name": "conv2d_22", "trainable": true, "dtype": "float32", "filters": 64, "kernel_size": [1, 1], "strides": [1, 1], "padding": "same", "data_format": "channels_last", "dilation_rate": [1, 1], "groups": 1, "activation": "linear", "use_bias": false, "kernel_initializer": {"class_name": "GlorotUniform", "config": {"seed": null}}, "bias_initializer": {"class_name": "Zeros", "config": {}}, "kernel_regularizer": null, "bias_regularizer": null, "activity_regularizer": null, "kernel_constraint": null, "bias_constraint": null}, "name": "conv2d_22", "inbound_nodes": [[["mixed1", 0, 0, {}]]]}, {"class_name": "BatchNormalization", "config": {"name": "batch_normalization_25", "trainable": true, "dtype": "float32", "axis": [3], "momentum": 0.99, "epsilon": 0.001, "center": true, "scale": false, "beta_initializer": {"class_name": "Zeros", "config": {}}, "gamma_initializer": {"class_name": "Ones", "config": {}}, "moving_mean_initializer": {"class_name": "Zeros", "config": {}}, "moving_variance_initializer": {"class_name": "Ones", "config": {}}, "beta_regularizer": null, "gamma_regularizer": null, "beta_constraint": null, "gamma_constraint": null}, "name": "batch_normalization_25", "inbound_nodes": [[["conv2d_22", 0, 0, {}]]]}, {"class_name": "Activation", "config": {"name": "activation_210", "trainable": true, "dtype": "float32", "activation": "relu"}, "name": "activation_210", "inbound_nodes": [[["batch_normalization_25", 0, 0, {}]]]}, {"class_name": "Conv2D", "config": {"name": "conv2d_20", "trainable": true, "dtype": "float32", "filters": 48, "kernel_size": [1, 1], "strides": [1, 1], "padding": "same", "data_format": "channels_last", "dilation_rate": [1, 1], "groups": 1, "activation": "linear", "use_bias": false, "kernel_initializer": {"class_name": "GlorotUniform", "config": {"seed": null}}, "bias_initializer": {"class_name": "Zeros", "config": {}}, "kernel_regularizer": null, "bias_regularizer": null, "activity_regularizer": null, "kernel_constraint": null, "bias_constraint": null}, "name": "conv2d_20", "inbound_nodes": [[["mixed1", 0, 0, {}]]]}, {"class_name": "Conv2D", "config": {"name": "conv2d_23", "trainable": true, "dtype": "float32", "filters": 96, "kernel_size": [3, 3], "strides": [1, 1], "padding": "same", "data_format": "channels_last", "dilation_rate": [1, 1], "groups": 1, "activation": "linear", "use_bias": false, "kernel_initializer": {"class_name": "GlorotUniform", "config": {"seed": null}}, "bias_initializer": {"class_name": "Zeros", "config": {}}, "kernel_regularizer": null, "bias_regularizer": null, "activity_regularizer": null, "kernel_constraint": null, "bias_constraint": null}, "name": "conv2d_23", "inbound_nodes": [[["activation_210", 0, 0, {}]]]}, {"class_name": "BatchNormalization", "config": {"name": "batch_normalization_23", "trainable": true, "dtype": "float32", "axis": [3], "momentum": 0.99, "epsilon": 0.001, "center": true, "scale": false, "beta_initializer": {"class_name": "Zeros", "config": {}}, "gamma_initializer": {"class_name": "Ones", "config": {}}, "moving_mean_initializer": {"class_name": "Zeros", "config": {}}, "moving_variance_initializer": {"class_name": "Ones", "config": {}}, "beta_regularizer": null, "gamma_regularizer": null, "beta_constraint": null, "gamma_constraint": null}, "name": "batch_normalization_23", "inbound_nodes": [[["conv2d_20", 0, 0, {}]]]}, {"class_name": "BatchNormalization", "config": {"name": "batch_normalization_26", "trainable": true, "dtype": "float32", "axis": [3], "momentum": 0.99, "epsilon": 0.001, "center": true, "scale": false, "beta_initializer": {"class_name": "Zeros", "config": {}}, "gamma_initializer": {"class_name": "Ones", "config": {}}, "moving_mean_initializer": {"class_name": "Zeros", "config": {}}, "moving_variance_initializer": {"class_name": "Ones", "config": {}}, "beta_regularizer": null, "gamma_regularizer": null, "beta_constraint": null, "gamma_constraint": null}, "name": "batch_normalization_26", "inbound_nodes": [[["conv2d_23", 0, 0, {}]]]}, {"class_name": "Activation", "config": {"name": "activation_208", "trainable": true, "dtype": "float32", "activation": "relu"}, "name": "activation_208", "inbound_nodes": [[["batch_normalization_23", 0, 0, {}]]]}, {"class_name": "Activation", "config": {"name": "activation_211", "trainable": true, "dtype": "float32", "activation": "relu"}, "name": "activation_211", "inbound_nodes": [[["batch_normalization_26", 0, 0, {}]]]}, {"class_name": "AveragePooling2D", "config": {"name": "average_pooling2d_2", "trainable": true, "dtype": "float32", "pool_size": [3, 3], "padding": "same", "strides": [1, 1], "data_format": "channels_last"}, "name": "average_pooling2d_2", "inbound_nodes": [[["mixed1", 0, 0, {}]]]}, {"class_name": "Conv2D", "config": {"name": "conv2d_19", "trainable": true, "dtype": "float32", "filters": 64, "kernel_size": [1, 1], "strides": [1, 1], "padding": "same", "data_format": "channels_last", "dilation_rate": [1, 1], "groups": 1, "activation": "linear", "use_bias": false, "kernel_initializer": {"class_name": "GlorotUniform", "config": {"seed": null}}, "bias_initializer": {"class_name": "Zeros", "config": {}}, "kernel_regularizer": null, "bias_regularizer": null, "activity_regularizer": null, "kernel_constraint": null, "bias_constraint": null}, "name": "conv2d_19", "inbound_nodes": [[["mixed1", 0, 0, {}]]]}, {"class_name": "Conv2D", "config": {"name": "conv2d_21", "trainable": true, "dtype": "float32", "filters": 64, "kernel_size": [5, 5], "strides": [1, 1], "padding": "same", "data_format": "channels_last", "dilation_rate": [1, 1], "groups": 1, "activation": "linear", "use_bias": false, "kernel_initializer": {"class_name": "GlorotUniform", "config": {"seed": null}}, "bias_initializer": {"class_name": "Zeros", "config": {}}, "kernel_regularizer": null, "bias_regularizer": null, "activity_regularizer": null, "kernel_constraint": null, "bias_constraint": null}, "name": "conv2d_21", "inbound_nodes": [[["activation_208", 0, 0, {}]]]}, {"class_name": "Conv2D", "config": {"name": "conv2d_24", "trainable": true, "dtype": "float32", "filters": 96, "kernel_size": [3, 3], "strides": [1, 1], "padding": "same", "data_format": "channels_last", "dilation_rate": [1, 1], "groups": 1, "activation": "linear", "use_bias": false, "kernel_initializer": {"class_name": "GlorotUniform", "config": {"seed": null}}, "bias_initializer": {"class_name": "Zeros", "config": {}}, "kernel_regularizer": null, "bias_regularizer": null, "activity_regularizer": null, "kernel_constraint": null, "bias_constraint": null}, "name": "conv2d_24", "inbound_nodes": [[["activation_211", 0, 0, {}]]]}, {"class_name": "Conv2D", "config": {"name": "conv2d_25", "trainable": true, "dtype": "float32", "filters": 64, "kernel_size": [1, 1], "strides": [1, 1], "padding": "same", "data_format": "channels_last", "dilation_rate": [1, 1], "groups": 1, "activation": "linear", "use_bias": false, "kernel_initializer": {"class_name": "GlorotUniform", "config": {"seed": null}}, "bias_initializer": {"class_name": "Zeros", "config": {}}, "kernel_regularizer": null, "bias_regularizer": null, "activity_regularizer": null, "kernel_constraint": null, "bias_constraint": null}, "name": "conv2d_25", "inbound_nodes": [[["average_pooling2d_2", 0, 0, {}]]]}, {"class_name": "BatchNormalization", "config": {"name": "batch_normalization_22", "trainable": true, "dtype": "float32", "axis": [3], "momentum": 0.99, "epsilon": 0.001, "center": true, "scale": false, "beta_initializer": {"class_name": "Zeros", "config": {}}, "gamma_initializer": {"class_name": "Ones", "config": {}}, "moving_mean_initializer": {"class_name": "Zeros", "config": {}}, "moving_variance_initializer": {"class_name": "Ones", "config": {}}, "beta_regularizer": null, "gamma_regularizer": null, "beta_constraint": null, "gamma_constraint": null}, "name": "batch_normalization_22", "inbound_nodes": [[["conv2d_19", 0, 0, {}]]]}, {"class_name": "BatchNormalization", "config": {"name": "batch_normalization_24", "trainable": true, "dtype": "float32", "axis": [3], "momentum": 0.99, "epsilon": 0.001, "center": true, "scale": false, "beta_initializer": {"class_name": "Zeros", "config": {}}, "gamma_initializer": {"class_name": "Ones", "config": {}}, "moving_mean_initializer": {"class_name": "Zeros", "config": {}}, "moving_variance_initializer": {"class_name": "Ones", "config": {}}, "beta_regularizer": null, "gamma_regularizer": null, "beta_constraint": null, "gamma_constraint": null}, "name": "batch_normalization_24", "inbound_nodes": [[["conv2d_21", 0, 0, {}]]]}, {"class_name": "BatchNormalization", "config": {"name": "batch_normalization_27", "trainable": true, "dtype": "float32", "axis": [3], "momentum": 0.99, "epsilon": 0.001, "center": true, "scale": false, "beta_initializer": {"class_name": "Zeros", "config": {}}, "gamma_initializer": {"class_name": "Ones", "config": {}}, "moving_mean_initializer": {"class_name": "Zeros", "config": {}}, "moving_variance_initializer": {"class_name": "Ones", "config": {}}, "beta_regularizer": null, "gamma_regularizer": null, "beta_constraint": null, "gamma_constraint": null}, "name": "batch_normalization_27", "inbound_nodes": [[["conv2d_24", 0, 0, {}]]]}, {"class_name": "BatchNormalization", "config": {"name": "batch_normalization_28", "trainable": true, "dtype": "float32", "axis": [3], "momentum": 0.99, "epsilon": 0.001, "center": true, "scale": false, "beta_initializer": {"class_name": "Zeros", "config": {}}, "gamma_initializer": {"class_name": "Ones", "config": {}}, "moving_mean_initializer": {"class_name": "Zeros", "config": {}}, "moving_variance_initializer": {"class_name": "Ones", "config": {}}, "beta_regularizer": null, "gamma_regularizer": null, "beta_constraint": null, "gamma_constraint": null}, "name": "batch_normalization_28", "inbound_nodes": [[["conv2d_25", 0, 0, {}]]]}, {"class_name": "Activation", "config": {"name": "activation_207", "trainable": true, "dtype": "float32", "activation": "relu"}, "name": "activation_207", "inbound_nodes": [[["batch_normalization_22", 0, 0, {}]]]}, {"class_name": "Activation", "config": {"name": "activation_209", "trainable": true, "dtype": "float32", "activation": "relu"}, "name": "activation_209", "inbound_nodes": [[["batch_normalization_24", 0, 0, {}]]]}, {"class_name": "Activation", "config": {"name": "activation_212", "trainable": true, "dtype": "float32", "activation": "relu"}, "name": "activation_212", "inbound_nodes": [[["batch_normalization_27", 0, 0, {}]]]}, {"class_name": "Activation", "config": {"name": "activation_213", "trainable": true, "dtype": "float32", "activation": "relu"}, "name": "activation_213", "inbound_nodes": [[["batch_normalization_28", 0, 0, {}]]]}, {"class_name": "Concatenate", "config": {"name": "mixed2", "trainable": true, "dtype": "float32", "axis": 3}, "name": "mixed2", "inbound_nodes": [[["activation_207", 0, 0, {}], ["activation_209", 0, 0, {}], ["activation_212", 0, 0, {}], ["activation_213", 0, 0, {}]]]}, {"class_name": "Conv2D", "config": {"name": "conv2d_27", "trainable": true, "dtype": "float32", "filters": 64, "kernel_size": [1, 1], "strides": [1, 1], "padding": "same", "data_format": "channels_last", "dilation_rate": [1, 1], "groups": 1, "activation": "linear", "use_bias": false, "kernel_initializer": {"class_name": "GlorotUniform", "config": {"seed": null}}, "bias_initializer": {"class_name": "Zeros", "config": {}}, "kernel_regularizer": null, "bias_regularizer": null, "activity_regularizer": null, "kernel_constraint": null, "bias_constraint": null}, "name": "conv2d_27", "inbound_nodes": [[["mixed2", 0, 0, {}]]]}, {"class_name": "BatchNormalization", "config": {"name": "batch_normalization_30", "trainable": true, "dtype": "float32", "axis": [3], "momentum": 0.99, "epsilon": 0.001, "center": true, "scale": false, "beta_initializer": {"class_name": "Zeros", "config": {}}, "gamma_initializer": {"class_name": "Ones", "config": {}}, "moving_mean_initializer": {"class_name": "Zeros", "config": {}}, "moving_variance_initializer": {"class_name": "Ones", "config": {}}, "beta_regularizer": null, "gamma_regularizer": null, "beta_constraint": null, "gamma_constraint": null}, "name": "batch_normalization_30", "inbound_nodes": [[["conv2d_27", 0, 0, {}]]]}, {"class_name": "Activation", "config": {"name": "activation_215", "trainable": true, "dtype": "float32", "activation": "relu"}, "name": "activation_215", "inbound_nodes": [[["batch_normalization_30", 0, 0, {}]]]}, {"class_name": "Conv2D", "config": {"name": "conv2d_28", "trainable": true, "dtype": "float32", "filters": 96, "kernel_size": [3, 3], "strides": [1, 1], "padding": "same", "data_format": "channels_last", "dilation_rate": [1, 1], "groups": 1, "activation": "linear", "use_bias": false, "kernel_initializer": {"class_name": "GlorotUniform", "config": {"seed": null}}, "bias_initializer": {"class_name": "Zeros", "config": {}}, "kernel_regularizer": null, "bias_regularizer": null, "activity_regularizer": null, "kernel_constraint": null, "bias_constraint": null}, "name": "conv2d_28", "inbound_nodes": [[["activation_215", 0, 0, {}]]]}, {"class_name": "BatchNormalization", "config": {"name": "batch_normalization_31", "trainable": true, "dtype": "float32", "axis": [3], "momentum": 0.99, "epsilon": 0.001, "center": true, "scale": false, "beta_initializer": {"class_name": "Zeros", "config": {}}, "gamma_initializer": {"class_name": "Ones", "config": {}}, "moving_mean_initializer": {"class_name": "Zeros", "config": {}}, "moving_variance_initializer": {"class_name": "Ones", "config": {}}, "beta_regularizer": null, "gamma_regularizer": null, "beta_constraint": null, "gamma_constraint": null}, "name": "batch_normalization_31", "inbound_nodes": [[["conv2d_28", 0, 0, {}]]]}, {"class_name": "Activation", "config": {"name": "activation_216", "trainable": true, "dtype": "float32", "activation": "relu"}, "name": "activation_216", "inbound_nodes": [[["batch_normalization_31", 0, 0, {}]]]}, {"class_name": "Conv2D", "config": {"name": "conv2d_26", "trainable": true, "dtype": "float32", "filters": 384, "kernel_size": [3, 3], "strides": [2, 2], "padding": "valid", "data_format": "channels_last", "dilation_rate": [1, 1], "groups": 1, "activation": "linear", "use_bias": false, "kernel_initializer": {"class_name": "GlorotUniform", "config": {"seed": null}}, "bias_initializer": {"class_name": "Zeros", "config": {}}, "kernel_regularizer": null, "bias_regularizer": null, "activity_regularizer": null, "kernel_constraint": null, "bias_constraint": null}, "name": "conv2d_26", "inbound_nodes": [[["mixed2", 0, 0, {}]]]}, {"class_name": "Conv2D", "config": {"name": "conv2d_29", "trainable": true, "dtype": "float32", "filters": 96, "kernel_size": [3, 3], "strides": [2, 2], "padding": "valid", "data_format": "channels_last", "dilation_rate": [1, 1], "groups": 1, "activation": "linear", "use_bias": false, "kernel_initializer": {"class_name": "GlorotUniform", "config": {"seed": null}}, "bias_initializer": {"class_name": "Zeros", "config": {}}, "kernel_regularizer": null, "bias_regularizer": null, "activity_regularizer": null, "kernel_constraint": null, "bias_constraint": null}, "name": "conv2d_29", "inbound_nodes": [[["activation_216", 0, 0, {}]]]}, {"class_name": "BatchNormalization", "config": {"name": "batch_normalization_29", "trainable": true, "dtype": "float32", "axis": [3], "momentum": 0.99, "epsilon": 0.001, "center": true, "scale": false, "beta_initializer": {"class_name": "Zeros", "config": {}}, "gamma_initializer": {"class_name": "Ones", "config": {}}, "moving_mean_initializer": {"class_name": "Zeros", "config": {}}, "moving_variance_initializer": {"class_name": "Ones", "config": {}}, "beta_regularizer": null, "gamma_regularizer": null, "beta_constraint": null, "gamma_constraint": null}, "name": "batch_normalization_29", "inbound_nodes": [[["conv2d_26", 0, 0, {}]]]}, {"class_name": "BatchNormalization", "config": {"name": "batch_normalization_32", "trainable": true, "dtype": "float32", "axis": [3], "momentum": 0.99, "epsilon": 0.001, "center": true, "scale": false, "beta_initializer": {"class_name": "Zeros", "config": {}}, "gamma_initializer": {"class_name": "Ones", "config": {}}, "moving_mean_initializer": {"class_name": "Zeros", "config": {}}, "moving_variance_initializer": {"class_name": "Ones", "config": {}}, "beta_regularizer": null, "gamma_regularizer": null, "beta_constraint": null, "gamma_constraint": null}, "name": "batch_normalization_32", "inbound_nodes": [[["conv2d_29", 0, 0, {}]]]}, {"class_name": "Activation", "config": {"name": "activation_214", "trainable": true, "dtype": "float32", "activation": "relu"}, "name": "activation_214", "inbound_nodes": [[["batch_normalization_29", 0, 0, {}]]]}, {"class_name": "Activation", "config": {"name": "activation_217", "trainable": true, "dtype": "float32", "activation": "relu"}, "name": "activation_217", "inbound_nodes": [[["batch_normalization_32", 0, 0, {}]]]}, {"class_name": "MaxPooling2D", "config": {"name": "max_pooling2d_2", "trainable": true, "dtype": "float32", "pool_size": [3, 3], "padding": "valid", "strides": [2, 2], "data_format": "channels_last"}, "name": "max_pooling2d_2", "inbound_nodes": [[["mixed2", 0, 0, {}]]]}, {"class_name": "Concatenate", "config": {"name": "mixed3", "trainable": true, "dtype": "float32", "axis": 3}, "name": "mixed3", "inbound_nodes": [[["activation_214", 0, 0, {}], ["activation_217", 0, 0, {}], ["max_pooling2d_2", 0, 0, {}]]]}, {"class_name": "Conv2D", "config": {"name": "conv2d_34", "trainable": true, "dtype": "float32", "filters": 128, "kernel_size": [1, 1], "strides": [1, 1], "padding": "same", "data_format": "channels_last", "dilation_rate": [1, 1], "groups": 1, "activation": "linear", "use_bias": false, "kernel_initializer": {"class_name": "GlorotUniform", "config": {"seed": null}}, "bias_initializer": {"class_name": "Zeros", "config": {}}, "kernel_regularizer": null, "bias_regularizer": null, "activity_regularizer": null, "kernel_constraint": null, "bias_constraint": null}, "name": "conv2d_34", "inbound_nodes": [[["mixed3", 0, 0, {}]]]}, {"class_name": "BatchNormalization", "config": {"name": "batch_normalization_37", "trainable": true, "dtype": "float32", "axis": [3], "momentum": 0.99, "epsilon": 0.001, "center": true, "scale": false, "beta_initializer": {"class_name": "Zeros", "config": {}}, "gamma_initializer": {"class_name": "Ones", "config": {}}, "moving_mean_initializer": {"class_name": "Zeros", "config": {}}, "moving_variance_initializer": {"class_name": "Ones", "config": {}}, "beta_regularizer": null, "gamma_regularizer": null, "beta_constraint": null, "gamma_constraint": null}, "name": "batch_normalization_37", "inbound_nodes": [[["conv2d_34", 0, 0, {}]]]}, {"class_name": "Activation", "config": {"name": "activation_222", "trainable": true, "dtype": "float32", "activation": "relu"}, "name": "activation_222", "inbound_nodes": [[["batch_normalization_37", 0, 0, {}]]]}, {"class_name": "Conv2D", "config": {"name": "conv2d_35", "trainable": true, "dtype": "float32", "filters": 128, "kernel_size": [7, 1], "strides": [1, 1], "padding": "same", "data_format": "channels_last", "dilation_rate": [1, 1], "groups": 1, "activation": "linear", "use_bias": false, "kernel_initializer": {"class_name": "GlorotUniform", "config": {"seed": null}}, "bias_initializer": {"class_name": "Zeros", "config": {}}, "kernel_regularizer": null, "bias_regularizer": null, "activity_regularizer": null, "kernel_constraint": null, "bias_constraint": null}, "name": "conv2d_35", "inbound_nodes": [[["activation_222", 0, 0, {}]]]}, {"class_name": "BatchNormalization", "config": {"name": "batch_normalization_38", "trainable": true, "dtype": "float32", "axis": [3], "momentum": 0.99, "epsilon": 0.001, "center": true, "scale": false, "beta_initializer": {"class_name": "Zeros", "config": {}}, "gamma_initializer": {"class_name": "Ones", "config": {}}, "moving_mean_initializer": {"class_name": "Zeros", "config": {}}, "moving_variance_initializer": {"class_name": "Ones", "config": {}}, "beta_regularizer": null, "gamma_regularizer": null, "beta_constraint": null, "gamma_constraint": null}, "name": "batch_normalization_38", "inbound_nodes": [[["conv2d_35", 0, 0, {}]]]}, {"class_name": "Activation", "config": {"name": "activation_223", "trainable": true, "dtype": "float32", "activation": "relu"}, "name": "activation_223", "inbound_nodes": [[["batch_normalization_38", 0, 0, {}]]]}, {"class_name": "Conv2D", "config": {"name": "conv2d_31", "trainable": true, "dtype": "float32", "filters": 128, "kernel_size": [1, 1], "strides": [1, 1], "padding": "same", "data_format": "channels_last", "dilation_rate": [1, 1], "groups": 1, "activation": "linear", "use_bias": false, "kernel_initializer": {"class_name": "GlorotUniform", "config": {"seed": null}}, "bias_initializer": {"class_name": "Zeros", "config": {}}, "kernel_regularizer": null, "bias_regularizer": null, "activity_regularizer": null, "kernel_constraint": null, "bias_constraint": null}, "name": "conv2d_31", "inbound_nodes": [[["mixed3", 0, 0, {}]]]}, {"class_name": "Conv2D", "config": {"name": "conv2d_36", "trainable": true, "dtype": "float32", "filters": 128, "kernel_size": [1, 7], "strides": [1, 1], "padding": "same", "data_format": "channels_last", "dilation_rate": [1, 1], "groups": 1, "activation": "linear", "use_bias": false, "kernel_initializer": {"class_name": "GlorotUniform", "config": {"seed": null}}, "bias_initializer": {"class_name": "Zeros", "config": {}}, "kernel_regularizer": null, "bias_regularizer": null, "activity_regularizer": null, "kernel_constraint": null, "bias_constraint": null}, "name": "conv2d_36", "inbound_nodes": [[["activation_223", 0, 0, {}]]]}, {"class_name": "BatchNormalization", "config": {"name": "batch_normalization_34", "trainable": true, "dtype": "float32", "axis": [3], "momentum": 0.99, "epsilon": 0.001, "center": true, "scale": false, "beta_initializer": {"class_name": "Zeros", "config": {}}, "gamma_initializer": {"class_name": "Ones", "config": {}}, "moving_mean_initializer": {"class_name": "Zeros", "config": {}}, "moving_variance_initializer": {"class_name": "Ones", "config": {}}, "beta_regularizer": null, "gamma_regularizer": null, "beta_constraint": null, "gamma_constraint": null}, "name": "batch_normalization_34", "inbound_nodes": [[["conv2d_31", 0, 0, {}]]]}, {"class_name": "BatchNormalization", "config": {"name": "batch_normalization_39", "trainable": true, "dtype": "float32", "axis": [3], "momentum": 0.99, "epsilon": 0.001, "center": true, "scale": false, "beta_initializer": {"class_name": "Zeros", "config": {}}, "gamma_initializer": {"class_name": "Ones", "config": {}}, "moving_mean_initializer": {"class_name": "Zeros", "config": {}}, "moving_variance_initializer": {"class_name": "Ones", "config": {}}, "beta_regularizer": null, "gamma_regularizer": null, "beta_constraint": null, "gamma_constraint": null}, "name": "batch_normalization_39", "inbound_nodes": [[["conv2d_36", 0, 0, {}]]]}, {"class_name": "Activation", "config": {"name": "activation_219", "trainable": true, "dtype": "float32", "activation": "relu"}, "name": "activation_219", "inbound_nodes": [[["batch_normalization_34", 0, 0, {}]]]}, {"class_name": "Activation", "config": {"name": "activation_224", "trainable": true, "dtype": "float32", "activation": "relu"}, "name": "activation_224", "inbound_nodes": [[["batch_normalization_39", 0, 0, {}]]]}, {"class_name": "Conv2D", "config": {"name": "conv2d_32", "trainable": true, "dtype": "float32", "filters": 128, "kernel_size": [1, 7], "strides": [1, 1], "padding": "same", "data_format": "channels_last", "dilation_rate": [1, 1], "groups": 1, "activation": "linear", "use_bias": false, "kernel_initializer": {"class_name": "GlorotUniform", "config": {"seed": null}}, "bias_initializer": {"class_name": "Zeros", "config": {}}, "kernel_regularizer": null, "bias_regularizer": null, "activity_regularizer": null, "kernel_constraint": null, "bias_constraint": null}, "name": "conv2d_32", "inbound_nodes": [[["activation_219", 0, 0, {}]]]}, {"class_name": "Conv2D", "config": {"name": "conv2d_37", "trainable": true, "dtype": "float32", "filters": 128, "kernel_size": [7, 1], "strides": [1, 1], "padding": "same", "data_format": "channels_last", "dilation_rate": [1, 1], "groups": 1, "activation": "linear", "use_bias": false, "kernel_initializer": {"class_name": "GlorotUniform", "config": {"seed": null}}, "bias_initializer": {"class_name": "Zeros", "config": {}}, "kernel_regularizer": null, "bias_regularizer": null, "activity_regularizer": null, "kernel_constraint": null, "bias_constraint": null}, "name": "conv2d_37", "inbound_nodes": [[["activation_224", 0, 0, {}]]]}, {"class_name": "BatchNormalization", "config": {"name": "batch_normalization_35", "trainable": true, "dtype": "float32", "axis": [3], "momentum": 0.99, "epsilon": 0.001, "center": true, "scale": false, "beta_initializer": {"class_name": "Zeros", "config": {}}, "gamma_initializer": {"class_name": "Ones", "config": {}}, "moving_mean_initializer": {"class_name": "Zeros", "config": {}}, "moving_variance_initializer": {"class_name": "Ones", "config": {}}, "beta_regularizer": null, "gamma_regularizer": null, "beta_constraint": null, "gamma_constraint": null}, "name": "batch_normalization_35", "inbound_nodes": [[["conv2d_32", 0, 0, {}]]]}, {"class_name": "BatchNormalization", "config": {"name": "batch_normalization_40", "trainable": true, "dtype": "float32", "axis": [3], "momentum": 0.99, "epsilon": 0.001, "center": true, "scale": false, "beta_initializer": {"class_name": "Zeros", "config": {}}, "gamma_initializer": {"class_name": "Ones", "config": {}}, "moving_mean_initializer": {"class_name": "Zeros", "config": {}}, "moving_variance_initializer": {"class_name": "Ones", "config": {}}, "beta_regularizer": null, "gamma_regularizer": null, "beta_constraint": null, "gamma_constraint": null}, "name": "batch_normalization_40", "inbound_nodes": [[["conv2d_37", 0, 0, {}]]]}, {"class_name": "Activation", "config": {"name": "activation_220", "trainable": true, "dtype": "float32", "activation": "relu"}, "name": "activation_220", "inbound_nodes": [[["batch_normalization_35", 0, 0, {}]]]}, {"class_name": "Activation", "config": {"name": "activation_225", "trainable": true, "dtype": "float32", "activation": "relu"}, "name": "activation_225", "inbound_nodes": [[["batch_normalization_40", 0, 0, {}]]]}, {"class_name": "AveragePooling2D", "config": {"name": "average_pooling2d_3", "trainable": true, "dtype": "float32", "pool_size": [3, 3], "padding": "same", "strides": [1, 1], "data_format": "channels_last"}, "name": "average_pooling2d_3", "inbound_nodes": [[["mixed3", 0, 0, {}]]]}, {"class_name": "Conv2D", "config": {"name": "conv2d_30", "trainable": true, "dtype": "float32", "filters": 192, "kernel_size": [1, 1], "strides": [1, 1], "padding": "same", "data_format": "channels_last", "dilation_rate": [1, 1], "groups": 1, "activation": "linear", "use_bias": false, "kernel_initializer": {"class_name": "GlorotUniform", "config": {"seed": null}}, "bias_initializer": {"class_name": "Zeros", "config": {}}, "kernel_regularizer": null, "bias_regularizer": null, "activity_regularizer": null, "kernel_constraint": null, "bias_constraint": null}, "name": "conv2d_30", "inbound_nodes": [[["mixed3", 0, 0, {}]]]}, {"class_name": "Conv2D", "config": {"name": "conv2d_33", "trainable": true, "dtype": "float32", "filters": 192, "kernel_size": [7, 1], "strides": [1, 1], "padding": "same", "data_format": "channels_last", "dilation_rate": [1, 1], "groups": 1, "activation": "linear", "use_bias": false, "kernel_initializer": {"class_name": "GlorotUniform", "config": {"seed": null}}, "bias_initializer": {"class_name": "Zeros", "config": {}}, "kernel_regularizer": null, "bias_regularizer": null, "activity_regularizer": null, "kernel_constraint": null, "bias_constraint": null}, "name": "conv2d_33", "inbound_nodes": [[["activation_220", 0, 0, {}]]]}, {"class_name": "Conv2D", "config": {"name": "conv2d_38", "trainable": true, "dtype": "float32", "filters": 192, "kernel_size": [1, 7], "strides": [1, 1], "padding": "same", "data_format": "channels_last", "dilation_rate": [1, 1], "groups": 1, "activation": "linear", "use_bias": false, "kernel_initializer": {"class_name": "GlorotUniform", "config": {"seed": null}}, "bias_initializer": {"class_name": "Zeros", "config": {}}, "kernel_regularizer": null, "bias_regularizer": null, "activity_regularizer": null, "kernel_constraint": null, "bias_constraint": null}, "name": "conv2d_38", "inbound_nodes": [[["activation_225", 0, 0, {}]]]}, {"class_name": "Conv2D", "config": {"name": "conv2d_39", "trainable": true, "dtype": "float32", "filters": 192, "kernel_size": [1, 1], "strides": [1, 1], "padding": "same", "data_format": "channels_last", "dilation_rate": [1, 1], "groups": 1, "activation": "linear", "use_bias": false, "kernel_initializer": {"class_name": "GlorotUniform", "config": {"seed": null}}, "bias_initializer": {"class_name": "Zeros", "config": {}}, "kernel_regularizer": null, "bias_regularizer": null, "activity_regularizer": null, "kernel_constraint": null, "bias_constraint": null}, "name": "conv2d_39", "inbound_nodes": [[["average_pooling2d_3", 0, 0, {}]]]}, {"class_name": "BatchNormalization", "config": {"name": "batch_normalization_33", "trainable": true, "dtype": "float32", "axis": [3], "momentum": 0.99, "epsilon": 0.001, "center": true, "scale": false, "beta_initializer": {"class_name": "Zeros", "config": {}}, "gamma_initializer": {"class_name": "Ones", "config": {}}, "moving_mean_initializer": {"class_name": "Zeros", "config": {}}, "moving_variance_initializer": {"class_name": "Ones", "config": {}}, "beta_regularizer": null, "gamma_regularizer": null, "beta_constraint": null, "gamma_constraint": null}, "name": "batch_normalization_33", "inbound_nodes": [[["conv2d_30", 0, 0, {}]]]}, {"class_name": "BatchNormalization", "config": {"name": "batch_normalization_36", "trainable": true, "dtype": "float32", "axis": [3], "momentum": 0.99, "epsilon": 0.001, "center": true, "scale": false, "beta_initializer": {"class_name": "Zeros", "config": {}}, "gamma_initializer": {"class_name": "Ones", "config": {}}, "moving_mean_initializer": {"class_name": "Zeros", "config": {}}, "moving_variance_initializer": {"class_name": "Ones", "config": {}}, "beta_regularizer": null, "gamma_regularizer": null, "beta_constraint": null, "gamma_constraint": null}, "name": "batch_normalization_36", "inbound_nodes": [[["conv2d_33", 0, 0, {}]]]}, {"class_name": "BatchNormalization", "config": {"name": "batch_normalization_41", "trainable": true, "dtype": "float32", "axis": [3], "momentum": 0.99, "epsilon": 0.001, "center": true, "scale": false, "beta_initializer": {"class_name": "Zeros", "config": {}}, "gamma_initializer": {"class_name": "Ones", "config": {}}, "moving_mean_initializer": {"class_name": "Zeros", "config": {}}, "moving_variance_initializer": {"class_name": "Ones", "config": {}}, "beta_regularizer": null, "gamma_regularizer": null, "beta_constraint": null, "gamma_constraint": null}, "name": "batch_normalization_41", "inbound_nodes": [[["conv2d_38", 0, 0, {}]]]}, {"class_name": "BatchNormalization", "config": {"name": "batch_normalization_42", "trainable": true, "dtype": "float32", "axis": [3], "momentum": 0.99, "epsilon": 0.001, "center": true, "scale": false, "beta_initializer": {"class_name": "Zeros", "config": {}}, "gamma_initializer": {"class_name": "Ones", "config": {}}, "moving_mean_initializer": {"class_name": "Zeros", "config": {}}, "moving_variance_initializer": {"class_name": "Ones", "config": {}}, "beta_regularizer": null, "gamma_regularizer": null, "beta_constraint": null, "gamma_constraint": null}, "name": "batch_normalization_42", "inbound_nodes": [[["conv2d_39", 0, 0, {}]]]}, {"class_name": "Activation", "config": {"name": "activation_218", "trainable": true, "dtype": "float32", "activation": "relu"}, "name": "activation_218", "inbound_nodes": [[["batch_normalization_33", 0, 0, {}]]]}, {"class_name": "Activation", "config": {"name": "activation_221", "trainable": true, "dtype": "float32", "activation": "relu"}, "name": "activation_221", "inbound_nodes": [[["batch_normalization_36", 0, 0, {}]]]}, {"class_name": "Activation", "config": {"name": "activation_226", "trainable": true, "dtype": "float32", "activation": "relu"}, "name": "activation_226", "inbound_nodes": [[["batch_normalization_41", 0, 0, {}]]]}, {"class_name": "Activation", "config": {"name": "activation_227", "trainable": true, "dtype": "float32", "activation": "relu"}, "name": "activation_227", "inbound_nodes": [[["batch_normalization_42", 0, 0, {}]]]}, {"class_name": "Concatenate", "config": {"name": "mixed4", "trainable": true, "dtype": "float32", "axis": 3}, "name": "mixed4", "inbound_nodes": [[["activation_218", 0, 0, {}], ["activation_221", 0, 0, {}], ["activation_226", 0, 0, {}], ["activation_227", 0, 0, {}]]]}, {"class_name": "Conv2D", "config": {"name": "conv2d_44", "trainable": true, "dtype": "float32", "filters": 160, "kernel_size": [1, 1], "strides": [1, 1], "padding": "same", "data_format": "channels_last", "dilation_rate": [1, 1], "groups": 1, "activation": "linear", "use_bias": false, "kernel_initializer": {"class_name": "GlorotUniform", "config": {"seed": null}}, "bias_initializer": {"class_name": "Zeros", "config": {}}, "kernel_regularizer": null, "bias_regularizer": null, "activity_regularizer": null, "kernel_constraint": null, "bias_constraint": null}, "name": "conv2d_44", "inbound_nodes": [[["mixed4", 0, 0, {}]]]}, {"class_name": "BatchNormalization", "config": {"name": "batch_normalization_47", "trainable": true, "dtype": "float32", "axis": [3], "momentum": 0.99, "epsilon": 0.001, "center": true, "scale": false, "beta_initializer": {"class_name": "Zeros", "config": {}}, "gamma_initializer": {"class_name": "Ones", "config": {}}, "moving_mean_initializer": {"class_name": "Zeros", "config": {}}, "moving_variance_initializer": {"class_name": "Ones", "config": {}}, "beta_regularizer": null, "gamma_regularizer": null, "beta_constraint": null, "gamma_constraint": null}, "name": "batch_normalization_47", "inbound_nodes": [[["conv2d_44", 0, 0, {}]]]}, {"class_name": "Activation", "config": {"name": "activation_232", "trainable": true, "dtype": "float32", "activation": "relu"}, "name": "activation_232", "inbound_nodes": [[["batch_normalization_47", 0, 0, {}]]]}, {"class_name": "Conv2D", "config": {"name": "conv2d_45", "trainable": true, "dtype": "float32", "filters": 160, "kernel_size": [7, 1], "strides": [1, 1], "padding": "same", "data_format": "channels_last", "dilation_rate": [1, 1], "groups": 1, "activation": "linear", "use_bias": false, "kernel_initializer": {"class_name": "GlorotUniform", "config": {"seed": null}}, "bias_initializer": {"class_name": "Zeros", "config": {}}, "kernel_regularizer": null, "bias_regularizer": null, "activity_regularizer": null, "kernel_constraint": null, "bias_constraint": null}, "name": "conv2d_45", "inbound_nodes": [[["activation_232", 0, 0, {}]]]}, {"class_name": "BatchNormalization", "config": {"name": "batch_normalization_48", "trainable": true, "dtype": "float32", "axis": [3], "momentum": 0.99, "epsilon": 0.001, "center": true, "scale": false, "beta_initializer": {"class_name": "Zeros", "config": {}}, "gamma_initializer": {"class_name": "Ones", "config": {}}, "moving_mean_initializer": {"class_name": "Zeros", "config": {}}, "moving_variance_initializer": {"class_name": "Ones", "config": {}}, "beta_regularizer": null, "gamma_regularizer": null, "beta_constraint": null, "gamma_constraint": null}, "name": "batch_normalization_48", "inbound_nodes": [[["conv2d_45", 0, 0, {}]]]}, {"class_name": "Activation", "config": {"name": "activation_233", "trainable": true, "dtype": "float32", "activation": "relu"}, "name": "activation_233", "inbound_nodes": [[["batch_normalization_48", 0, 0, {}]]]}, {"class_name": "Conv2D", "config": {"name": "conv2d_41", "trainable": true, "dtype": "float32", "filters": 160, "kernel_size": [1, 1], "strides": [1, 1], "padding": "same", "data_format": "channels_last", "dilation_rate": [1, 1], "groups": 1, "activation": "linear", "use_bias": false, "kernel_initializer": {"class_name": "GlorotUniform", "config": {"seed": null}}, "bias_initializer": {"class_name": "Zeros", "config": {}}, "kernel_regularizer": null, "bias_regularizer": null, "activity_regularizer": null, "kernel_constraint": null, "bias_constraint": null}, "name": "conv2d_41", "inbound_nodes": [[["mixed4", 0, 0, {}]]]}, {"class_name": "Conv2D", "config": {"name": "conv2d_46", "trainable": true, "dtype": "float32", "filters": 160, "kernel_size": [1, 7], "strides": [1, 1], "padding": "same", "data_format": "channels_last", "dilation_rate": [1, 1], "groups": 1, "activation": "linear", "use_bias": false, "kernel_initializer": {"class_name": "GlorotUniform", "config": {"seed": null}}, "bias_initializer": {"class_name": "Zeros", "config": {}}, "kernel_regularizer": null, "bias_regularizer": null, "activity_regularizer": null, "kernel_constraint": null, "bias_constraint": null}, "name": "conv2d_46", "inbound_nodes": [[["activation_233", 0, 0, {}]]]}, {"class_name": "BatchNormalization", "config": {"name": "batch_normalization_44", "trainable": true, "dtype": "float32", "axis": [3], "momentum": 0.99, "epsilon": 0.001, "center": true, "scale": false, "beta_initializer": {"class_name": "Zeros", "config": {}}, "gamma_initializer": {"class_name": "Ones", "config": {}}, "moving_mean_initializer": {"class_name": "Zeros", "config": {}}, "moving_variance_initializer": {"class_name": "Ones", "config": {}}, "beta_regularizer": null, "gamma_regularizer": null, "beta_constraint": null, "gamma_constraint": null}, "name": "batch_normalization_44", "inbound_nodes": [[["conv2d_41", 0, 0, {}]]]}, {"class_name": "BatchNormalization", "config": {"name": "batch_normalization_49", "trainable": true, "dtype": "float32", "axis": [3], "momentum": 0.99, "epsilon": 0.001, "center": true, "scale": false, "beta_initializer": {"class_name": "Zeros", "config": {}}, "gamma_initializer": {"class_name": "Ones", "config": {}}, "moving_mean_initializer": {"class_name": "Zeros", "config": {}}, "moving_variance_initializer": {"class_name": "Ones", "config": {}}, "beta_regularizer": null, "gamma_regularizer": null, "beta_constraint": null, "gamma_constraint": null}, "name": "batch_normalization_49", "inbound_nodes": [[["conv2d_46", 0, 0, {}]]]}, {"class_name": "Activation", "config": {"name": "activation_229", "trainable": true, "dtype": "float32", "activation": "relu"}, "name": "activation_229", "inbound_nodes": [[["batch_normalization_44", 0, 0, {}]]]}, {"class_name": "Activation", "config": {"name": "activation_234", "trainable": true, "dtype": "float32", "activation": "relu"}, "name": "activation_234", "inbound_nodes": [[["batch_normalization_49", 0, 0, {}]]]}, {"class_name": "Conv2D", "config": {"name": "conv2d_42", "trainable": true, "dtype": "float32", "filters": 160, "kernel_size": [1, 7], "strides": [1, 1], "padding": "same", "data_format": "channels_last", "dilation_rate": [1, 1], "groups": 1, "activation": "linear", "use_bias": false, "kernel_initializer": {"class_name": "GlorotUniform", "config": {"seed": null}}, "bias_initializer": {"class_name": "Zeros", "config": {}}, "kernel_regularizer": null, "bias_regularizer": null, "activity_regularizer": null, "kernel_constraint": null, "bias_constraint": null}, "name": "conv2d_42", "inbound_nodes": [[["activation_229", 0, 0, {}]]]}, {"class_name": "Conv2D", "config": {"name": "conv2d_47", "trainable": true, "dtype": "float32", "filters": 160, "kernel_size": [7, 1], "strides": [1, 1], "padding": "same", "data_format": "channels_last", "dilation_rate": [1, 1], "groups": 1, "activation": "linear", "use_bias": false, "kernel_initializer": {"class_name": "GlorotUniform", "config": {"seed": null}}, "bias_initializer": {"class_name": "Zeros", "config": {}}, "kernel_regularizer": null, "bias_regularizer": null, "activity_regularizer": null, "kernel_constraint": null, "bias_constraint": null}, "name": "conv2d_47", "inbound_nodes": [[["activation_234", 0, 0, {}]]]}, {"class_name": "BatchNormalization", "config": {"name": "batch_normalization_45", "trainable": true, "dtype": "float32", "axis": [3], "momentum": 0.99, "epsilon": 0.001, "center": true, "scale": false, "beta_initializer": {"class_name": "Zeros", "config": {}}, "gamma_initializer": {"class_name": "Ones", "config": {}}, "moving_mean_initializer": {"class_name": "Zeros", "config": {}}, "moving_variance_initializer": {"class_name": "Ones", "config": {}}, "beta_regularizer": null, "gamma_regularizer": null, "beta_constraint": null, "gamma_constraint": null}, "name": "batch_normalization_45", "inbound_nodes": [[["conv2d_42", 0, 0, {}]]]}, {"class_name": "BatchNormalization", "config": {"name": "batch_normalization_50", "trainable": true, "dtype": "float32", "axis": [3], "momentum": 0.99, "epsilon": 0.001, "center": true, "scale": false, "beta_initializer": {"class_name": "Zeros", "config": {}}, "gamma_initializer": {"class_name": "Ones", "config": {}}, "moving_mean_initializer": {"class_name": "Zeros", "config": {}}, "moving_variance_initializer": {"class_name": "Ones", "config": {}}, "beta_regularizer": null, "gamma_regularizer": null, "beta_constraint": null, "gamma_constraint": null}, "name": "batch_normalization_50", "inbound_nodes": [[["conv2d_47", 0, 0, {}]]]}, {"class_name": "Activation", "config": {"name": "activation_230", "trainable": true, "dtype": "float32", "activation": "relu"}, "name": "activation_230", "inbound_nodes": [[["batch_normalization_45", 0, 0, {}]]]}, {"class_name": "Activation", "config": {"name": "activation_235", "trainable": true, "dtype": "float32", "activation": "relu"}, "name": "activation_235", "inbound_nodes": [[["batch_normalization_50", 0, 0, {}]]]}, {"class_name": "AveragePooling2D", "config": {"name": "average_pooling2d_4", "trainable": true, "dtype": "float32", "pool_size": [3, 3], "padding": "same", "strides": [1, 1], "data_format": "channels_last"}, "name": "average_pooling2d_4", "inbound_nodes": [[["mixed4", 0, 0, {}]]]}, {"class_name": "Conv2D", "config": {"name": "conv2d_40", "trainable": true, "dtype": "float32", "filters": 192, "kernel_size": [1, 1], "strides": [1, 1], "padding": "same", "data_format": "channels_last", "dilation_rate": [1, 1], "groups": 1, "activation": "linear", "use_bias": false, "kernel_initializer": {"class_name": "GlorotUniform", "config": {"seed": null}}, "bias_initializer": {"class_name": "Zeros", "config": {}}, "kernel_regularizer": null, "bias_regularizer": null, "activity_regularizer": null, "kernel_constraint": null, "bias_constraint": null}, "name": "conv2d_40", "inbound_nodes": [[["mixed4", 0, 0, {}]]]}, {"class_name": "Conv2D", "config": {"name": "conv2d_43", "trainable": true, "dtype": "float32", "filters": 192, "kernel_size": [7, 1], "strides": [1, 1], "padding": "same", "data_format": "channels_last", "dilation_rate": [1, 1], "groups": 1, "activation": "linear", "use_bias": false, "kernel_initializer": {"class_name": "GlorotUniform", "config": {"seed": null}}, "bias_initializer": {"class_name": "Zeros", "config": {}}, "kernel_regularizer": null, "bias_regularizer": null, "activity_regularizer": null, "kernel_constraint": null, "bias_constraint": null}, "name": "conv2d_43", "inbound_nodes": [[["activation_230", 0, 0, {}]]]}, {"class_name": "Conv2D", "config": {"name": "conv2d_48", "trainable": true, "dtype": "float32", "filters": 192, "kernel_size": [1, 7], "strides": [1, 1], "padding": "same", "data_format": "channels_last", "dilation_rate": [1, 1], "groups": 1, "activation": "linear", "use_bias": false, "kernel_initializer": {"class_name": "GlorotUniform", "config": {"seed": null}}, "bias_initializer": {"class_name": "Zeros", "config": {}}, "kernel_regularizer": null, "bias_regularizer": null, "activity_regularizer": null, "kernel_constraint": null, "bias_constraint": null}, "name": "conv2d_48", "inbound_nodes": [[["activation_235", 0, 0, {}]]]}, {"class_name": "Conv2D", "config": {"name": "conv2d_49", "trainable": true, "dtype": "float32", "filters": 192, "kernel_size": [1, 1], "strides": [1, 1], "padding": "same", "data_format": "channels_last", "dilation_rate": [1, 1], "groups": 1, "activation": "linear", "use_bias": false, "kernel_initializer": {"class_name": "GlorotUniform", "config": {"seed": null}}, "bias_initializer": {"class_name": "Zeros", "config": {}}, "kernel_regularizer": null, "bias_regularizer": null, "activity_regularizer": null, "kernel_constraint": null, "bias_constraint": null}, "name": "conv2d_49", "inbound_nodes": [[["average_pooling2d_4", 0, 0, {}]]]}, {"class_name": "BatchNormalization", "config": {"name": "batch_normalization_43", "trainable": true, "dtype": "float32", "axis": [3], "momentum": 0.99, "epsilon": 0.001, "center": true, "scale": false, "beta_initializer": {"class_name": "Zeros", "config": {}}, "gamma_initializer": {"class_name": "Ones", "config": {}}, "moving_mean_initializer": {"class_name": "Zeros", "config": {}}, "moving_variance_initializer": {"class_name": "Ones", "config": {}}, "beta_regularizer": null, "gamma_regularizer": null, "beta_constraint": null, "gamma_constraint": null}, "name": "batch_normalization_43", "inbound_nodes": [[["conv2d_40", 0, 0, {}]]]}, {"class_name": "BatchNormalization", "config": {"name": "batch_normalization_46", "trainable": true, "dtype": "float32", "axis": [3], "momentum": 0.99, "epsilon": 0.001, "center": true, "scale": false, "beta_initializer": {"class_name": "Zeros", "config": {}}, "gamma_initializer": {"class_name": "Ones", "config": {}}, "moving_mean_initializer": {"class_name": "Zeros", "config": {}}, "moving_variance_initializer": {"class_name": "Ones", "config": {}}, "beta_regularizer": null, "gamma_regularizer": null, "beta_constraint": null, "gamma_constraint": null}, "name": "batch_normalization_46", "inbound_nodes": [[["conv2d_43", 0, 0, {}]]]}, {"class_name": "BatchNormalization", "config": {"name": "batch_normalization_51", "trainable": true, "dtype": "float32", "axis": [3], "momentum": 0.99, "epsilon": 0.001, "center": true, "scale": false, "beta_initializer": {"class_name": "Zeros", "config": {}}, "gamma_initializer": {"class_name": "Ones", "config": {}}, "moving_mean_initializer": {"class_name": "Zeros", "config": {}}, "moving_variance_initializer": {"class_name": "Ones", "config": {}}, "beta_regularizer": null, "gamma_regularizer": null, "beta_constraint": null, "gamma_constraint": null}, "name": "batch_normalization_51", "inbound_nodes": [[["conv2d_48", 0, 0, {}]]]}, {"class_name": "BatchNormalization", "config": {"name": "batch_normalization_52", "trainable": true, "dtype": "float32", "axis": [3], "momentum": 0.99, "epsilon": 0.001, "center": true, "scale": false, "beta_initializer": {"class_name": "Zeros", "config": {}}, "gamma_initializer": {"class_name": "Ones", "config": {}}, "moving_mean_initializer": {"class_name": "Zeros", "config": {}}, "moving_variance_initializer": {"class_name": "Ones", "config": {}}, "beta_regularizer": null, "gamma_regularizer": null, "beta_constraint": null, "gamma_constraint": null}, "name": "batch_normalization_52", "inbound_nodes": [[["conv2d_49", 0, 0, {}]]]}, {"class_name": "Activation", "config": {"name": "activation_228", "trainable": true, "dtype": "float32", "activation": "relu"}, "name": "activation_228", "inbound_nodes": [[["batch_normalization_43", 0, 0, {}]]]}, {"class_name": "Activation", "config": {"name": "activation_231", "trainable": true, "dtype": "float32", "activation": "relu"}, "name": "activation_231", "inbound_nodes": [[["batch_normalization_46", 0, 0, {}]]]}, {"class_name": "Activation", "config": {"name": "activation_236", "trainable": true, "dtype": "float32", "activation": "relu"}, "name": "activation_236", "inbound_nodes": [[["batch_normalization_51", 0, 0, {}]]]}, {"class_name": "Activation", "config": {"name": "activation_237", "trainable": true, "dtype": "float32", "activation": "relu"}, "name": "activation_237", "inbound_nodes": [[["batch_normalization_52", 0, 0, {}]]]}, {"class_name": "Concatenate", "config": {"name": "mixed5", "trainable": true, "dtype": "float32", "axis": 3}, "name": "mixed5", "inbound_nodes": [[["activation_228", 0, 0, {}], ["activation_231", 0, 0, {}], ["activation_236", 0, 0, {}], ["activation_237", 0, 0, {}]]]}, {"class_name": "Conv2D", "config": {"name": "conv2d_54", "trainable": true, "dtype": "float32", "filters": 160, "kernel_size": [1, 1], "strides": [1, 1], "padding": "same", "data_format": "channels_last", "dilation_rate": [1, 1], "groups": 1, "activation": "linear", "use_bias": false, "kernel_initializer": {"class_name": "GlorotUniform", "config": {"seed": null}}, "bias_initializer": {"class_name": "Zeros", "config": {}}, "kernel_regularizer": null, "bias_regularizer": null, "activity_regularizer": null, "kernel_constraint": null, "bias_constraint": null}, "name": "conv2d_54", "inbound_nodes": [[["mixed5", 0, 0, {}]]]}, {"class_name": "BatchNormalization", "config": {"name": "batch_normalization_57", "trainable": true, "dtype": "float32", "axis": [3], "momentum": 0.99, "epsilon": 0.001, "center": true, "scale": false, "beta_initializer": {"class_name": "Zeros", "config": {}}, "gamma_initializer": {"class_name": "Ones", "config": {}}, "moving_mean_initializer": {"class_name": "Zeros", "config": {}}, "moving_variance_initializer": {"class_name": "Ones", "config": {}}, "beta_regularizer": null, "gamma_regularizer": null, "beta_constraint": null, "gamma_constraint": null}, "name": "batch_normalization_57", "inbound_nodes": [[["conv2d_54", 0, 0, {}]]]}, {"class_name": "Activation", "config": {"name": "activation_242", "trainable": true, "dtype": "float32", "activation": "relu"}, "name": "activation_242", "inbound_nodes": [[["batch_normalization_57", 0, 0, {}]]]}, {"class_name": "Conv2D", "config": {"name": "conv2d_55", "trainable": true, "dtype": "float32", "filters": 160, "kernel_size": [7, 1], "strides": [1, 1], "padding": "same", "data_format": "channels_last", "dilation_rate": [1, 1], "groups": 1, "activation": "linear", "use_bias": false, "kernel_initializer": {"class_name": "GlorotUniform", "config": {"seed": null}}, "bias_initializer": {"class_name": "Zeros", "config": {}}, "kernel_regularizer": null, "bias_regularizer": null, "activity_regularizer": null, "kernel_constraint": null, "bias_constraint": null}, "name": "conv2d_55", "inbound_nodes": [[["activation_242", 0, 0, {}]]]}, {"class_name": "BatchNormalization", "config": {"name": "batch_normalization_58", "trainable": true, "dtype": "float32", "axis": [3], "momentum": 0.99, "epsilon": 0.001, "center": true, "scale": false, "beta_initializer": {"class_name": "Zeros", "config": {}}, "gamma_initializer": {"class_name": "Ones", "config": {}}, "moving_mean_initializer": {"class_name": "Zeros", "config": {}}, "moving_variance_initializer": {"class_name": "Ones", "config": {}}, "beta_regularizer": null, "gamma_regularizer": null, "beta_constraint": null, "gamma_constraint": null}, "name": "batch_normalization_58", "inbound_nodes": [[["conv2d_55", 0, 0, {}]]]}, {"class_name": "Activation", "config": {"name": "activation_243", "trainable": true, "dtype": "float32", "activation": "relu"}, "name": "activation_243", "inbound_nodes": [[["batch_normalization_58", 0, 0, {}]]]}, {"class_name": "Conv2D", "config": {"name": "conv2d_51", "trainable": true, "dtype": "float32", "filters": 160, "kernel_size": [1, 1], "strides": [1, 1], "padding": "same", "data_format": "channels_last", "dilation_rate": [1, 1], "groups": 1, "activation": "linear", "use_bias": false, "kernel_initializer": {"class_name": "GlorotUniform", "config": {"seed": null}}, "bias_initializer": {"class_name": "Zeros", "config": {}}, "kernel_regularizer": null, "bias_regularizer": null, "activity_regularizer": null, "kernel_constraint": null, "bias_constraint": null}, "name": "conv2d_51", "inbound_nodes": [[["mixed5", 0, 0, {}]]]}, {"class_name": "Conv2D", "config": {"name": "conv2d_56", "trainable": true, "dtype": "float32", "filters": 160, "kernel_size": [1, 7], "strides": [1, 1], "padding": "same", "data_format": "channels_last", "dilation_rate": [1, 1], "groups": 1, "activation": "linear", "use_bias": false, "kernel_initializer": {"class_name": "GlorotUniform", "config": {"seed": null}}, "bias_initializer": {"class_name": "Zeros", "config": {}}, "kernel_regularizer": null, "bias_regularizer": null, "activity_regularizer": null, "kernel_constraint": null, "bias_constraint": null}, "name": "conv2d_56", "inbound_nodes": [[["activation_243", 0, 0, {}]]]}, {"class_name": "BatchNormalization", "config": {"name": "batch_normalization_54", "trainable": true, "dtype": "float32", "axis": [3], "momentum": 0.99, "epsilon": 0.001, "center": true, "scale": false, "beta_initializer": {"class_name": "Zeros", "config": {}}, "gamma_initializer": {"class_name": "Ones", "config": {}}, "moving_mean_initializer": {"class_name": "Zeros", "config": {}}, "moving_variance_initializer": {"class_name": "Ones", "config": {}}, "beta_regularizer": null, "gamma_regularizer": null, "beta_constraint": null, "gamma_constraint": null}, "name": "batch_normalization_54", "inbound_nodes": [[["conv2d_51", 0, 0, {}]]]}, {"class_name": "BatchNormalization", "config": {"name": "batch_normalization_59", "trainable": true, "dtype": "float32", "axis": [3], "momentum": 0.99, "epsilon": 0.001, "center": true, "scale": false, "beta_initializer": {"class_name": "Zeros", "config": {}}, "gamma_initializer": {"class_name": "Ones", "config": {}}, "moving_mean_initializer": {"class_name": "Zeros", "config": {}}, "moving_variance_initializer": {"class_name": "Ones", "config": {}}, "beta_regularizer": null, "gamma_regularizer": null, "beta_constraint": null, "gamma_constraint": null}, "name": "batch_normalization_59", "inbound_nodes": [[["conv2d_56", 0, 0, {}]]]}, {"class_name": "Activation", "config": {"name": "activation_239", "trainable": true, "dtype": "float32", "activation": "relu"}, "name": "activation_239", "inbound_nodes": [[["batch_normalization_54", 0, 0, {}]]]}, {"class_name": "Activation", "config": {"name": "activation_244", "trainable": true, "dtype": "float32", "activation": "relu"}, "name": "activation_244", "inbound_nodes": [[["batch_normalization_59", 0, 0, {}]]]}, {"class_name": "Conv2D", "config": {"name": "conv2d_52", "trainable": true, "dtype": "float32", "filters": 160, "kernel_size": [1, 7], "strides": [1, 1], "padding": "same", "data_format": "channels_last", "dilation_rate": [1, 1], "groups": 1, "activation": "linear", "use_bias": false, "kernel_initializer": {"class_name": "GlorotUniform", "config": {"seed": null}}, "bias_initializer": {"class_name": "Zeros", "config": {}}, "kernel_regularizer": null, "bias_regularizer": null, "activity_regularizer": null, "kernel_constraint": null, "bias_constraint": null}, "name": "conv2d_52", "inbound_nodes": [[["activation_239", 0, 0, {}]]]}, {"class_name": "Conv2D", "config": {"name": "conv2d_57", "trainable": true, "dtype": "float32", "filters": 160, "kernel_size": [7, 1], "strides": [1, 1], "padding": "same", "data_format": "channels_last", "dilation_rate": [1, 1], "groups": 1, "activation": "linear", "use_bias": false, "kernel_initializer": {"class_name": "GlorotUniform", "config": {"seed": null}}, "bias_initializer": {"class_name": "Zeros", "config": {}}, "kernel_regularizer": null, "bias_regularizer": null, "activity_regularizer": null, "kernel_constraint": null, "bias_constraint": null}, "name": "conv2d_57", "inbound_nodes": [[["activation_244", 0, 0, {}]]]}, {"class_name": "BatchNormalization", "config": {"name": "batch_normalization_55", "trainable": true, "dtype": "float32", "axis": [3], "momentum": 0.99, "epsilon": 0.001, "center": true, "scale": false, "beta_initializer": {"class_name": "Zeros", "config": {}}, "gamma_initializer": {"class_name": "Ones", "config": {}}, "moving_mean_initializer": {"class_name": "Zeros", "config": {}}, "moving_variance_initializer": {"class_name": "Ones", "config": {}}, "beta_regularizer": null, "gamma_regularizer": null, "beta_constraint": null, "gamma_constraint": null}, "name": "batch_normalization_55", "inbound_nodes": [[["conv2d_52", 0, 0, {}]]]}, {"class_name": "BatchNormalization", "config": {"name": "batch_normalization_60", "trainable": true, "dtype": "float32", "axis": [3], "momentum": 0.99, "epsilon": 0.001, "center": true, "scale": false, "beta_initializer": {"class_name": "Zeros", "config": {}}, "gamma_initializer": {"class_name": "Ones", "config": {}}, "moving_mean_initializer": {"class_name": "Zeros", "config": {}}, "moving_variance_initializer": {"class_name": "Ones", "config": {}}, "beta_regularizer": null, "gamma_regularizer": null, "beta_constraint": null, "gamma_constraint": null}, "name": "batch_normalization_60", "inbound_nodes": [[["conv2d_57", 0, 0, {}]]]}, {"class_name": "Activation", "config": {"name": "activation_240", "trainable": true, "dtype": "float32", "activation": "relu"}, "name": "activation_240", "inbound_nodes": [[["batch_normalization_55", 0, 0, {}]]]}, {"class_name": "Activation", "config": {"name": "activation_245", "trainable": true, "dtype": "float32", "activation": "relu"}, "name": "activation_245", "inbound_nodes": [[["batch_normalization_60", 0, 0, {}]]]}, {"class_name": "AveragePooling2D", "config": {"name": "average_pooling2d_5", "trainable": true, "dtype": "float32", "pool_size": [3, 3], "padding": "same", "strides": [1, 1], "data_format": "channels_last"}, "name": "average_pooling2d_5", "inbound_nodes": [[["mixed5", 0, 0, {}]]]}, {"class_name": "Conv2D", "config": {"name": "conv2d_50", "trainable": true, "dtype": "float32", "filters": 192, "kernel_size": [1, 1], "strides": [1, 1], "padding": "same", "data_format": "channels_last", "dilation_rate": [1, 1], "groups": 1, "activation": "linear", "use_bias": false, "kernel_initializer": {"class_name": "GlorotUniform", "config": {"seed": null}}, "bias_initializer": {"class_name": "Zeros", "config": {}}, "kernel_regularizer": null, "bias_regularizer": null, "activity_regularizer": null, "kernel_constraint": null, "bias_constraint": null}, "name": "conv2d_50", "inbound_nodes": [[["mixed5", 0, 0, {}]]]}, {"class_name": "Conv2D", "config": {"name": "conv2d_53", "trainable": true, "dtype": "float32", "filters": 192, "kernel_size": [7, 1], "strides": [1, 1], "padding": "same", "data_format": "channels_last", "dilation_rate": [1, 1], "groups": 1, "activation": "linear", "use_bias": false, "kernel_initializer": {"class_name": "GlorotUniform", "config": {"seed": null}}, "bias_initializer": {"class_name": "Zeros", "config": {}}, "kernel_regularizer": null, "bias_regularizer": null, "activity_regularizer": null, "kernel_constraint": null, "bias_constraint": null}, "name": "conv2d_53", "inbound_nodes": [[["activation_240", 0, 0, {}]]]}, {"class_name": "Conv2D", "config": {"name": "conv2d_58", "trainable": true, "dtype": "float32", "filters": 192, "kernel_size": [1, 7], "strides": [1, 1], "padding": "same", "data_format": "channels_last", "dilation_rate": [1, 1], "groups": 1, "activation": "linear", "use_bias": false, "kernel_initializer": {"class_name": "GlorotUniform", "config": {"seed": null}}, "bias_initializer": {"class_name": "Zeros", "config": {}}, "kernel_regularizer": null, "bias_regularizer": null, "activity_regularizer": null, "kernel_constraint": null, "bias_constraint": null}, "name": "conv2d_58", "inbound_nodes": [[["activation_245", 0, 0, {}]]]}, {"class_name": "Conv2D", "config": {"name": "conv2d_59", "trainable": true, "dtype": "float32", "filters": 192, "kernel_size": [1, 1], "strides": [1, 1], "padding": "same", "data_format": "channels_last", "dilation_rate": [1, 1], "groups": 1, "activation": "linear", "use_bias": false, "kernel_initializer": {"class_name": "GlorotUniform", "config": {"seed": null}}, "bias_initializer": {"class_name": "Zeros", "config": {}}, "kernel_regularizer": null, "bias_regularizer": null, "activity_regularizer": null, "kernel_constraint": null, "bias_constraint": null}, "name": "conv2d_59", "inbound_nodes": [[["average_pooling2d_5", 0, 0, {}]]]}, {"class_name": "BatchNormalization", "config": {"name": "batch_normalization_53", "trainable": true, "dtype": "float32", "axis": [3], "momentum": 0.99, "epsilon": 0.001, "center": true, "scale": false, "beta_initializer": {"class_name": "Zeros", "config": {}}, "gamma_initializer": {"class_name": "Ones", "config": {}}, "moving_mean_initializer": {"class_name": "Zeros", "config": {}}, "moving_variance_initializer": {"class_name": "Ones", "config": {}}, "beta_regularizer": null, "gamma_regularizer": null, "beta_constraint": null, "gamma_constraint": null}, "name": "batch_normalization_53", "inbound_nodes": [[["conv2d_50", 0, 0, {}]]]}, {"class_name": "BatchNormalization", "config": {"name": "batch_normalization_56", "trainable": true, "dtype": "float32", "axis": [3], "momentum": 0.99, "epsilon": 0.001, "center": true, "scale": false, "beta_initializer": {"class_name": "Zeros", "config": {}}, "gamma_initializer": {"class_name": "Ones", "config": {}}, "moving_mean_initializer": {"class_name": "Zeros", "config": {}}, "moving_variance_initializer": {"class_name": "Ones", "config": {}}, "beta_regularizer": null, "gamma_regularizer": null, "beta_constraint": null, "gamma_constraint": null}, "name": "batch_normalization_56", "inbound_nodes": [[["conv2d_53", 0, 0, {}]]]}, {"class_name": "BatchNormalization", "config": {"name": "batch_normalization_61", "trainable": true, "dtype": "float32", "axis": [3], "momentum": 0.99, "epsilon": 0.001, "center": true, "scale": false, "beta_initializer": {"class_name": "Zeros", "config": {}}, "gamma_initializer": {"class_name": "Ones", "config": {}}, "moving_mean_initializer": {"class_name": "Zeros", "config": {}}, "moving_variance_initializer": {"class_name": "Ones", "config": {}}, "beta_regularizer": null, "gamma_regularizer": null, "beta_constraint": null, "gamma_constraint": null}, "name": "batch_normalization_61", "inbound_nodes": [[["conv2d_58", 0, 0, {}]]]}, {"class_name": "BatchNormalization", "config": {"name": "batch_normalization_62", "trainable": true, "dtype": "float32", "axis": [3], "momentum": 0.99, "epsilon": 0.001, "center": true, "scale": false, "beta_initializer": {"class_name": "Zeros", "config": {}}, "gamma_initializer": {"class_name": "Ones", "config": {}}, "moving_mean_initializer": {"class_name": "Zeros", "config": {}}, "moving_variance_initializer": {"class_name": "Ones", "config": {}}, "beta_regularizer": null, "gamma_regularizer": null, "beta_constraint": null, "gamma_constraint": null}, "name": "batch_normalization_62", "inbound_nodes": [[["conv2d_59", 0, 0, {}]]]}, {"class_name": "Activation", "config": {"name": "activation_238", "trainable": true, "dtype": "float32", "activation": "relu"}, "name": "activation_238", "inbound_nodes": [[["batch_normalization_53", 0, 0, {}]]]}, {"class_name": "Activation", "config": {"name": "activation_241", "trainable": true, "dtype": "float32", "activation": "relu"}, "name": "activation_241", "inbound_nodes": [[["batch_normalization_56", 0, 0, {}]]]}, {"class_name": "Activation", "config": {"name": "activation_246", "trainable": true, "dtype": "float32", "activation": "relu"}, "name": "activation_246", "inbound_nodes": [[["batch_normalization_61", 0, 0, {}]]]}, {"class_name": "Activation", "config": {"name": "activation_247", "trainable": true, "dtype": "float32", "activation": "relu"}, "name": "activation_247", "inbound_nodes": [[["batch_normalization_62", 0, 0, {}]]]}, {"class_name": "Concatenate", "config": {"name": "mixed6", "trainable": true, "dtype": "float32", "axis": 3}, "name": "mixed6", "inbound_nodes": [[["activation_238", 0, 0, {}], ["activation_241", 0, 0, {}], ["activation_246", 0, 0, {}], ["activation_247", 0, 0, {}]]]}, {"class_name": "Conv2D", "config": {"name": "conv2d_64", "trainable": true, "dtype": "float32", "filters": 192, "kernel_size": [1, 1], "strides": [1, 1], "padding": "same", "data_format": "channels_last", "dilation_rate": [1, 1], "groups": 1, "activation": "linear", "use_bias": false, "kernel_initializer": {"class_name": "GlorotUniform", "config": {"seed": null}}, "bias_initializer": {"class_name": "Zeros", "config": {}}, "kernel_regularizer": null, "bias_regularizer": null, "activity_regularizer": null, "kernel_constraint": null, "bias_constraint": null}, "name": "conv2d_64", "inbound_nodes": [[["mixed6", 0, 0, {}]]]}, {"class_name": "BatchNormalization", "config": {"name": "batch_normalization_67", "trainable": true, "dtype": "float32", "axis": [3], "momentum": 0.99, "epsilon": 0.001, "center": true, "scale": false, "beta_initializer": {"class_name": "Zeros", "config": {}}, "gamma_initializer": {"class_name": "Ones", "config": {}}, "moving_mean_initializer": {"class_name": "Zeros", "config": {}}, "moving_variance_initializer": {"class_name": "Ones", "config": {}}, "beta_regularizer": null, "gamma_regularizer": null, "beta_constraint": null, "gamma_constraint": null}, "name": "batch_normalization_67", "inbound_nodes": [[["conv2d_64", 0, 0, {}]]]}, {"class_name": "Activation", "config": {"name": "activation_252", "trainable": true, "dtype": "float32", "activation": "relu"}, "name": "activation_252", "inbound_nodes": [[["batch_normalization_67", 0, 0, {}]]]}, {"class_name": "Conv2D", "config": {"name": "conv2d_65", "trainable": true, "dtype": "float32", "filters": 192, "kernel_size": [7, 1], "strides": [1, 1], "padding": "same", "data_format": "channels_last", "dilation_rate": [1, 1], "groups": 1, "activation": "linear", "use_bias": false, "kernel_initializer": {"class_name": "GlorotUniform", "config": {"seed": null}}, "bias_initializer": {"class_name": "Zeros", "config": {}}, "kernel_regularizer": null, "bias_regularizer": null, "activity_regularizer": null, "kernel_constraint": null, "bias_constraint": null}, "name": "conv2d_65", "inbound_nodes": [[["activation_252", 0, 0, {}]]]}, {"class_name": "BatchNormalization", "config": {"name": "batch_normalization_68", "trainable": true, "dtype": "float32", "axis": [3], "momentum": 0.99, "epsilon": 0.001, "center": true, "scale": false, "beta_initializer": {"class_name": "Zeros", "config": {}}, "gamma_initializer": {"class_name": "Ones", "config": {}}, "moving_mean_initializer": {"class_name": "Zeros", "config": {}}, "moving_variance_initializer": {"class_name": "Ones", "config": {}}, "beta_regularizer": null, "gamma_regularizer": null, "beta_constraint": null, "gamma_constraint": null}, "name": "batch_normalization_68", "inbound_nodes": [[["conv2d_65", 0, 0, {}]]]}, {"class_name": "Activation", "config": {"name": "activation_253", "trainable": true, "dtype": "float32", "activation": "relu"}, "name": "activation_253", "inbound_nodes": [[["batch_normalization_68", 0, 0, {}]]]}, {"class_name": "Conv2D", "config": {"name": "conv2d_61", "trainable": true, "dtype": "float32", "filters": 192, "kernel_size": [1, 1], "strides": [1, 1], "padding": "same", "data_format": "channels_last", "dilation_rate": [1, 1], "groups": 1, "activation": "linear", "use_bias": false, "kernel_initializer": {"class_name": "GlorotUniform", "config": {"seed": null}}, "bias_initializer": {"class_name": "Zeros", "config": {}}, "kernel_regularizer": null, "bias_regularizer": null, "activity_regularizer": null, "kernel_constraint": null, "bias_constraint": null}, "name": "conv2d_61", "inbound_nodes": [[["mixed6", 0, 0, {}]]]}, {"class_name": "Conv2D", "config": {"name": "conv2d_66", "trainable": true, "dtype": "float32", "filters": 192, "kernel_size": [1, 7], "strides": [1, 1], "padding": "same", "data_format": "channels_last", "dilation_rate": [1, 1], "groups": 1, "activation": "linear", "use_bias": false, "kernel_initializer": {"class_name": "GlorotUniform", "config": {"seed": null}}, "bias_initializer": {"class_name": "Zeros", "config": {}}, "kernel_regularizer": null, "bias_regularizer": null, "activity_regularizer": null, "kernel_constraint": null, "bias_constraint": null}, "name": "conv2d_66", "inbound_nodes": [[["activation_253", 0, 0, {}]]]}, {"class_name": "BatchNormalization", "config": {"name": "batch_normalization_64", "trainable": true, "dtype": "float32", "axis": [3], "momentum": 0.99, "epsilon": 0.001, "center": true, "scale": false, "beta_initializer": {"class_name": "Zeros", "config": {}}, "gamma_initializer": {"class_name": "Ones", "config": {}}, "moving_mean_initializer": {"class_name": "Zeros", "config": {}}, "moving_variance_initializer": {"class_name": "Ones", "config": {}}, "beta_regularizer": null, "gamma_regularizer": null, "beta_constraint": null, "gamma_constraint": null}, "name": "batch_normalization_64", "inbound_nodes": [[["conv2d_61", 0, 0, {}]]]}, {"class_name": "BatchNormalization", "config": {"name": "batch_normalization_69", "trainable": true, "dtype": "float32", "axis": [3], "momentum": 0.99, "epsilon": 0.001, "center": true, "scale": false, "beta_initializer": {"class_name": "Zeros", "config": {}}, "gamma_initializer": {"class_name": "Ones", "config": {}}, "moving_mean_initializer": {"class_name": "Zeros", "config": {}}, "moving_variance_initializer": {"class_name": "Ones", "config": {}}, "beta_regularizer": null, "gamma_regularizer": null, "beta_constraint": null, "gamma_constraint": null}, "name": "batch_normalization_69", "inbound_nodes": [[["conv2d_66", 0, 0, {}]]]}, {"class_name": "Activation", "config": {"name": "activation_249", "trainable": true, "dtype": "float32", "activation": "relu"}, "name": "activation_249", "inbound_nodes": [[["batch_normalization_64", 0, 0, {}]]]}, {"class_name": "Activation", "config": {"name": "activation_254", "trainable": true, "dtype": "float32", "activation": "relu"}, "name": "activation_254", "inbound_nodes": [[["batch_normalization_69", 0, 0, {}]]]}, {"class_name": "Conv2D", "config": {"name": "conv2d_62", "trainable": true, "dtype": "float32", "filters": 192, "kernel_size": [1, 7], "strides": [1, 1], "padding": "same", "data_format": "channels_last", "dilation_rate": [1, 1], "groups": 1, "activation": "linear", "use_bias": false, "kernel_initializer": {"class_name": "GlorotUniform", "config": {"seed": null}}, "bias_initializer": {"class_name": "Zeros", "config": {}}, "kernel_regularizer": null, "bias_regularizer": null, "activity_regularizer": null, "kernel_constraint": null, "bias_constraint": null}, "name": "conv2d_62", "inbound_nodes": [[["activation_249", 0, 0, {}]]]}, {"class_name": "Conv2D", "config": {"name": "conv2d_67", "trainable": true, "dtype": "float32", "filters": 192, "kernel_size": [7, 1], "strides": [1, 1], "padding": "same", "data_format": "channels_last", "dilation_rate": [1, 1], "groups": 1, "activation": "linear", "use_bias": false, "kernel_initializer": {"class_name": "GlorotUniform", "config": {"seed": null}}, "bias_initializer": {"class_name": "Zeros", "config": {}}, "kernel_regularizer": null, "bias_regularizer": null, "activity_regularizer": null, "kernel_constraint": null, "bias_constraint": null}, "name": "conv2d_67", "inbound_nodes": [[["activation_254", 0, 0, {}]]]}, {"class_name": "BatchNormalization", "config": {"name": "batch_normalization_65", "trainable": true, "dtype": "float32", "axis": [3], "momentum": 0.99, "epsilon": 0.001, "center": true, "scale": false, "beta_initializer": {"class_name": "Zeros", "config": {}}, "gamma_initializer": {"class_name": "Ones", "config": {}}, "moving_mean_initializer": {"class_name": "Zeros", "config": {}}, "moving_variance_initializer": {"class_name": "Ones", "config": {}}, "beta_regularizer": null, "gamma_regularizer": null, "beta_constraint": null, "gamma_constraint": null}, "name": "batch_normalization_65", "inbound_nodes": [[["conv2d_62", 0, 0, {}]]]}, {"class_name": "BatchNormalization", "config": {"name": "batch_normalization_70", "trainable": true, "dtype": "float32", "axis": [3], "momentum": 0.99, "epsilon": 0.001, "center": true, "scale": false, "beta_initializer": {"class_name": "Zeros", "config": {}}, "gamma_initializer": {"class_name": "Ones", "config": {}}, "moving_mean_initializer": {"class_name": "Zeros", "config": {}}, "moving_variance_initializer": {"class_name": "Ones", "config": {}}, "beta_regularizer": null, "gamma_regularizer": null, "beta_constraint": null, "gamma_constraint": null}, "name": "batch_normalization_70", "inbound_nodes": [[["conv2d_67", 0, 0, {}]]]}, {"class_name": "Activation", "config": {"name": "activation_250", "trainable": true, "dtype": "float32", "activation": "relu"}, "name": "activation_250", "inbound_nodes": [[["batch_normalization_65", 0, 0, {}]]]}, {"class_name": "Activation", "config": {"name": "activation_255", "trainable": true, "dtype": "float32", "activation": "relu"}, "name": "activation_255", "inbound_nodes": [[["batch_normalization_70", 0, 0, {}]]]}, {"class_name": "AveragePooling2D", "config": {"name": "average_pooling2d_6", "trainable": true, "dtype": "float32", "pool_size": [3, 3], "padding": "same", "strides": [1, 1], "data_format": "channels_last"}, "name": "average_pooling2d_6", "inbound_nodes": [[["mixed6", 0, 0, {}]]]}, {"class_name": "Conv2D", "config": {"name": "conv2d_60", "trainable": true, "dtype": "float32", "filters": 192, "kernel_size": [1, 1], "strides": [1, 1], "padding": "same", "data_format": "channels_last", "dilation_rate": [1, 1], "groups": 1, "activation": "linear", "use_bias": false, "kernel_initializer": {"class_name": "GlorotUniform", "config": {"seed": null}}, "bias_initializer": {"class_name": "Zeros", "config": {}}, "kernel_regularizer": null, "bias_regularizer": null, "activity_regularizer": null, "kernel_constraint": null, "bias_constraint": null}, "name": "conv2d_60", "inbound_nodes": [[["mixed6", 0, 0, {}]]]}, {"class_name": "Conv2D", "config": {"name": "conv2d_63", "trainable": true, "dtype": "float32", "filters": 192, "kernel_size": [7, 1], "strides": [1, 1], "padding": "same", "data_format": "channels_last", "dilation_rate": [1, 1], "groups": 1, "activation": "linear", "use_bias": false, "kernel_initializer": {"class_name": "GlorotUniform", "config": {"seed": null}}, "bias_initializer": {"class_name": "Zeros", "config": {}}, "kernel_regularizer": null, "bias_regularizer": null, "activity_regularizer": null, "kernel_constraint": null, "bias_constraint": null}, "name": "conv2d_63", "inbound_nodes": [[["activation_250", 0, 0, {}]]]}, {"class_name": "Conv2D", "config": {"name": "conv2d_68", "trainable": true, "dtype": "float32", "filters": 192, "kernel_size": [1, 7], "strides": [1, 1], "padding": "same", "data_format": "channels_last", "dilation_rate": [1, 1], "groups": 1, "activation": "linear", "use_bias": false, "kernel_initializer": {"class_name": "GlorotUniform", "config": {"seed": null}}, "bias_initializer": {"class_name": "Zeros", "config": {}}, "kernel_regularizer": null, "bias_regularizer": null, "activity_regularizer": null, "kernel_constraint": null, "bias_constraint": null}, "name": "conv2d_68", "inbound_nodes": [[["activation_255", 0, 0, {}]]]}, {"class_name": "Conv2D", "config": {"name": "conv2d_69", "trainable": true, "dtype": "float32", "filters": 192, "kernel_size": [1, 1], "strides": [1, 1], "padding": "same", "data_format": "channels_last", "dilation_rate": [1, 1], "groups": 1, "activation": "linear", "use_bias": false, "kernel_initializer": {"class_name": "GlorotUniform", "config": {"seed": null}}, "bias_initializer": {"class_name": "Zeros", "config": {}}, "kernel_regularizer": null, "bias_regularizer": null, "activity_regularizer": null, "kernel_constraint": null, "bias_constraint": null}, "name": "conv2d_69", "inbound_nodes": [[["average_pooling2d_6", 0, 0, {}]]]}, {"class_name": "BatchNormalization", "config": {"name": "batch_normalization_63", "trainable": true, "dtype": "float32", "axis": [3], "momentum": 0.99, "epsilon": 0.001, "center": true, "scale": false, "beta_initializer": {"class_name": "Zeros", "config": {}}, "gamma_initializer": {"class_name": "Ones", "config": {}}, "moving_mean_initializer": {"class_name": "Zeros", "config": {}}, "moving_variance_initializer": {"class_name": "Ones", "config": {}}, "beta_regularizer": null, "gamma_regularizer": null, "beta_constraint": null, "gamma_constraint": null}, "name": "batch_normalization_63", "inbound_nodes": [[["conv2d_60", 0, 0, {}]]]}, {"class_name": "BatchNormalization", "config": {"name": "batch_normalization_66", "trainable": true, "dtype": "float32", "axis": [3], "momentum": 0.99, "epsilon": 0.001, "center": true, "scale": false, "beta_initializer": {"class_name": "Zeros", "config": {}}, "gamma_initializer": {"class_name": "Ones", "config": {}}, "moving_mean_initializer": {"class_name": "Zeros", "config": {}}, "moving_variance_initializer": {"class_name": "Ones", "config": {}}, "beta_regularizer": null, "gamma_regularizer": null, "beta_constraint": null, "gamma_constraint": null}, "name": "batch_normalization_66", "inbound_nodes": [[["conv2d_63", 0, 0, {}]]]}, {"class_name": "BatchNormalization", "config": {"name": "batch_normalization_71", "trainable": true, "dtype": "float32", "axis": [3], "momentum": 0.99, "epsilon": 0.001, "center": true, "scale": false, "beta_initializer": {"class_name": "Zeros", "config": {}}, "gamma_initializer": {"class_name": "Ones", "config": {}}, "moving_mean_initializer": {"class_name": "Zeros", "config": {}}, "moving_variance_initializer": {"class_name": "Ones", "config": {}}, "beta_regularizer": null, "gamma_regularizer": null, "beta_constraint": null, "gamma_constraint": null}, "name": "batch_normalization_71", "inbound_nodes": [[["conv2d_68", 0, 0, {}]]]}, {"class_name": "BatchNormalization", "config": {"name": "batch_normalization_72", "trainable": true, "dtype": "float32", "axis": [3], "momentum": 0.99, "epsilon": 0.001, "center": true, "scale": false, "beta_initializer": {"class_name": "Zeros", "config": {}}, "gamma_initializer": {"class_name": "Ones", "config": {}}, "moving_mean_initializer": {"class_name": "Zeros", "config": {}}, "moving_variance_initializer": {"class_name": "Ones", "config": {}}, "beta_regularizer": null, "gamma_regularizer": null, "beta_constraint": null, "gamma_constraint": null}, "name": "batch_normalization_72", "inbound_nodes": [[["conv2d_69", 0, 0, {}]]]}, {"class_name": "Activation", "config": {"name": "activation_248", "trainable": true, "dtype": "float32", "activation": "relu"}, "name": "activation_248", "inbound_nodes": [[["batch_normalization_63", 0, 0, {}]]]}, {"class_name": "Activation", "config": {"name": "activation_251", "trainable": true, "dtype": "float32", "activation": "relu"}, "name": "activation_251", "inbound_nodes": [[["batch_normalization_66", 0, 0, {}]]]}, {"class_name": "Activation", "config": {"name": "activation_256", "trainable": true, "dtype": "float32", "activation": "relu"}, "name": "activation_256", "inbound_nodes": [[["batch_normalization_71", 0, 0, {}]]]}, {"class_name": "Activation", "config": {"name": "activation_257", "trainable": true, "dtype": "float32", "activation": "relu"}, "name": "activation_257", "inbound_nodes": [[["batch_normalization_72", 0, 0, {}]]]}, {"class_name": "Concatenate", "config": {"name": "mixed7", "trainable": true, "dtype": "float32", "axis": 3}, "name": "mixed7", "inbound_nodes": [[["activation_248", 0, 0, {}], ["activation_251", 0, 0, {}], ["activation_256", 0, 0, {}], ["activation_257", 0, 0, {}]]]}, {"class_name": "Conv2D", "config": {"name": "conv2d_72", "trainable": true, "dtype": "float32", "filters": 192, "kernel_size": [1, 1], "strides": [1, 1], "padding": "same", "data_format": "channels_last", "dilation_rate": [1, 1], "groups": 1, "activation": "linear", "use_bias": false, "kernel_initializer": {"class_name": "GlorotUniform", "config": {"seed": null}}, "bias_initializer": {"class_name": "Zeros", "config": {}}, "kernel_regularizer": null, "bias_regularizer": null, "activity_regularizer": null, "kernel_constraint": null, "bias_constraint": null}, "name": "conv2d_72", "inbound_nodes": [[["mixed7", 0, 0, {}]]]}, {"class_name": "BatchNormalization", "config": {"name": "batch_normalization_75", "trainable": true, "dtype": "float32", "axis": [3], "momentum": 0.99, "epsilon": 0.001, "center": true, "scale": false, "beta_initializer": {"class_name": "Zeros", "config": {}}, "gamma_initializer": {"class_name": "Ones", "config": {}}, "moving_mean_initializer": {"class_name": "Zeros", "config": {}}, "moving_variance_initializer": {"class_name": "Ones", "config": {}}, "beta_regularizer": null, "gamma_regularizer": null, "beta_constraint": null, "gamma_constraint": null}, "name": "batch_normalization_75", "inbound_nodes": [[["conv2d_72", 0, 0, {}]]]}, {"class_name": "Activation", "config": {"name": "activation_260", "trainable": true, "dtype": "float32", "activation": "relu"}, "name": "activation_260", "inbound_nodes": [[["batch_normalization_75", 0, 0, {}]]]}, {"class_name": "Conv2D", "config": {"name": "conv2d_73", "trainable": true, "dtype": "float32", "filters": 192, "kernel_size": [1, 7], "strides": [1, 1], "padding": "same", "data_format": "channels_last", "dilation_rate": [1, 1], "groups": 1, "activation": "linear", "use_bias": false, "kernel_initializer": {"class_name": "GlorotUniform", "config": {"seed": null}}, "bias_initializer": {"class_name": "Zeros", "config": {}}, "kernel_regularizer": null, "bias_regularizer": null, "activity_regularizer": null, "kernel_constraint": null, "bias_constraint": null}, "name": "conv2d_73", "inbound_nodes": [[["activation_260", 0, 0, {}]]]}, {"class_name": "BatchNormalization", "config": {"name": "batch_normalization_76", "trainable": true, "dtype": "float32", "axis": [3], "momentum": 0.99, "epsilon": 0.001, "center": true, "scale": false, "beta_initializer": {"class_name": "Zeros", "config": {}}, "gamma_initializer": {"class_name": "Ones", "config": {}}, "moving_mean_initializer": {"class_name": "Zeros", "config": {}}, "moving_variance_initializer": {"class_name": "Ones", "config": {}}, "beta_regularizer": null, "gamma_regularizer": null, "beta_constraint": null, "gamma_constraint": null}, "name": "batch_normalization_76", "inbound_nodes": [[["conv2d_73", 0, 0, {}]]]}, {"class_name": "Activation", "config": {"name": "activation_261", "trainable": true, "dtype": "float32", "activation": "relu"}, "name": "activation_261", "inbound_nodes": [[["batch_normalization_76", 0, 0, {}]]]}, {"class_name": "Conv2D", "config": {"name": "conv2d_70", "trainable": true, "dtype": "float32", "filters": 192, "kernel_size": [1, 1], "strides": [1, 1], "padding": "same", "data_format": "channels_last", "dilation_rate": [1, 1], "groups": 1, "activation": "linear", "use_bias": false, "kernel_initializer": {"class_name": "GlorotUniform", "config": {"seed": null}}, "bias_initializer": {"class_name": "Zeros", "config": {}}, "kernel_regularizer": null, "bias_regularizer": null, "activity_regularizer": null, "kernel_constraint": null, "bias_constraint": null}, "name": "conv2d_70", "inbound_nodes": [[["mixed7", 0, 0, {}]]]}, {"class_name": "Conv2D", "config": {"name": "conv2d_74", "trainable": true, "dtype": "float32", "filters": 192, "kernel_size": [7, 1], "strides": [1, 1], "padding": "same", "data_format": "channels_last", "dilation_rate": [1, 1], "groups": 1, "activation": "linear", "use_bias": false, "kernel_initializer": {"class_name": "GlorotUniform", "config": {"seed": null}}, "bias_initializer": {"class_name": "Zeros", "config": {}}, "kernel_regularizer": null, "bias_regularizer": null, "activity_regularizer": null, "kernel_constraint": null, "bias_constraint": null}, "name": "conv2d_74", "inbound_nodes": [[["activation_261", 0, 0, {}]]]}, {"class_name": "BatchNormalization", "config": {"name": "batch_normalization_73", "trainable": true, "dtype": "float32", "axis": [3], "momentum": 0.99, "epsilon": 0.001, "center": true, "scale": false, "beta_initializer": {"class_name": "Zeros", "config": {}}, "gamma_initializer": {"class_name": "Ones", "config": {}}, "moving_mean_initializer": {"class_name": "Zeros", "config": {}}, "moving_variance_initializer": {"class_name": "Ones", "config": {}}, "beta_regularizer": null, "gamma_regularizer": null, "beta_constraint": null, "gamma_constraint": null}, "name": "batch_normalization_73", "inbound_nodes": [[["conv2d_70", 0, 0, {}]]]}, {"class_name": "BatchNormalization", "config": {"name": "batch_normalization_77", "trainable": true, "dtype": "float32", "axis": [3], "momentum": 0.99, "epsilon": 0.001, "center": true, "scale": false, "beta_initializer": {"class_name": "Zeros", "config": {}}, "gamma_initializer": {"class_name": "Ones", "config": {}}, "moving_mean_initializer": {"class_name": "Zeros", "config": {}}, "moving_variance_initializer": {"class_name": "Ones", "config": {}}, "beta_regularizer": null, "gamma_regularizer": null, "beta_constraint": null, "gamma_constraint": null}, "name": "batch_normalization_77", "inbound_nodes": [[["conv2d_74", 0, 0, {}]]]}, {"class_name": "Activation", "config": {"name": "activation_258", "trainable": true, "dtype": "float32", "activation": "relu"}, "name": "activation_258", "inbound_nodes": [[["batch_normalization_73", 0, 0, {}]]]}, {"class_name": "Activation", "config": {"name": "activation_262", "trainable": true, "dtype": "float32", "activation": "relu"}, "name": "activation_262", "inbound_nodes": [[["batch_normalization_77", 0, 0, {}]]]}, {"class_name": "Conv2D", "config": {"name": "conv2d_71", "trainable": true, "dtype": "float32", "filters": 320, "kernel_size": [3, 3], "strides": [2, 2], "padding": "valid", "data_format": "channels_last", "dilation_rate": [1, 1], "groups": 1, "activation": "linear", "use_bias": false, "kernel_initializer": {"class_name": "GlorotUniform", "config": {"seed": null}}, "bias_initializer": {"class_name": "Zeros", "config": {}}, "kernel_regularizer": null, "bias_regularizer": null, "activity_regularizer": null, "kernel_constraint": null, "bias_constraint": null}, "name": "conv2d_71", "inbound_nodes": [[["activation_258", 0, 0, {}]]]}, {"class_name": "Conv2D", "config": {"name": "conv2d_75", "trainable": true, "dtype": "float32", "filters": 192, "kernel_size": [3, 3], "strides": [2, 2], "padding": "valid", "data_format": "channels_last", "dilation_rate": [1, 1], "groups": 1, "activation": "linear", "use_bias": false, "kernel_initializer": {"class_name": "GlorotUniform", "config": {"seed": null}}, "bias_initializer": {"class_name": "Zeros", "config": {}}, "kernel_regularizer": null, "bias_regularizer": null, "activity_regularizer": null, "kernel_constraint": null, "bias_constraint": null}, "name": "conv2d_75", "inbound_nodes": [[["activation_262", 0, 0, {}]]]}, {"class_name": "BatchNormalization", "config": {"name": "batch_normalization_74", "trainable": true, "dtype": "float32", "axis": [3], "momentum": 0.99, "epsilon": 0.001, "center": true, "scale": false, "beta_initializer": {"class_name": "Zeros", "config": {}}, "gamma_initializer": {"class_name": "Ones", "config": {}}, "moving_mean_initializer": {"class_name": "Zeros", "config": {}}, "moving_variance_initializer": {"class_name": "Ones", "config": {}}, "beta_regularizer": null, "gamma_regularizer": null, "beta_constraint": null, "gamma_constraint": null}, "name": "batch_normalization_74", "inbound_nodes": [[["conv2d_71", 0, 0, {}]]]}, {"class_name": "BatchNormalization", "config": {"name": "batch_normalization_78", "trainable": true, "dtype": "float32", "axis": [3], "momentum": 0.99, "epsilon": 0.001, "center": true, "scale": false, "beta_initializer": {"class_name": "Zeros", "config": {}}, "gamma_initializer": {"class_name": "Ones", "config": {}}, "moving_mean_initializer": {"class_name": "Zeros", "config": {}}, "moving_variance_initializer": {"class_name": "Ones", "config": {}}, "beta_regularizer": null, "gamma_regularizer": null, "beta_constraint": null, "gamma_constraint": null}, "name": "batch_normalization_78", "inbound_nodes": [[["conv2d_75", 0, 0, {}]]]}, {"class_name": "Activation", "config": {"name": "activation_259", "trainable": true, "dtype": "float32", "activation": "relu"}, "name": "activation_259", "inbound_nodes": [[["batch_normalization_74", 0, 0, {}]]]}, {"class_name": "Activation", "config": {"name": "activation_263", "trainable": true, "dtype": "float32", "activation": "relu"}, "name": "activation_263", "inbound_nodes": [[["batch_normalization_78", 0, 0, {}]]]}, {"class_name": "MaxPooling2D", "config": {"name": "max_pooling2d_3", "trainable": true, "dtype": "float32", "pool_size": [3, 3], "padding": "valid", "strides": [2, 2], "data_format": "channels_last"}, "name": "max_pooling2d_3", "inbound_nodes": [[["mixed7", 0, 0, {}]]]}, {"class_name": "Concatenate", "config": {"name": "mixed8", "trainable": true, "dtype": "float32", "axis": 3}, "name": "mixed8", "inbound_nodes": [[["activation_259", 0, 0, {}], ["activation_263", 0, 0, {}], ["max_pooling2d_3", 0, 0, {}]]]}, {"class_name": "Conv2D", "config": {"name": "conv2d_80", "trainable": true, "dtype": "float32", "filters": 448, "kernel_size": [1, 1], "strides": [1, 1], "padding": "same", "data_format": "channels_last", "dilation_rate": [1, 1], "groups": 1, "activation": "linear", "use_bias": false, "kernel_initializer": {"class_name": "GlorotUniform", "config": {"seed": null}}, "bias_initializer": {"class_name": "Zeros", "config": {}}, "kernel_regularizer": null, "bias_regularizer": null, "activity_regularizer": null, "kernel_constraint": null, "bias_constraint": null}, "name": "conv2d_80", "inbound_nodes": [[["mixed8", 0, 0, {}]]]}, {"class_name": "BatchNormalization", "config": {"name": "batch_normalization_83", "trainable": true, "dtype": "float32", "axis": [3], "momentum": 0.99, "epsilon": 0.001, "center": true, "scale": false, "beta_initializer": {"class_name": "Zeros", "config": {}}, "gamma_initializer": {"class_name": "Ones", "config": {}}, "moving_mean_initializer": {"class_name": "Zeros", "config": {}}, "moving_variance_initializer": {"class_name": "Ones", "config": {}}, "beta_regularizer": null, "gamma_regularizer": null, "beta_constraint": null, "gamma_constraint": null}, "name": "batch_normalization_83", "inbound_nodes": [[["conv2d_80", 0, 0, {}]]]}, {"class_name": "Activation", "config": {"name": "activation_268", "trainable": true, "dtype": "float32", "activation": "relu"}, "name": "activation_268", "inbound_nodes": [[["batch_normalization_83", 0, 0, {}]]]}, {"class_name": "Conv2D", "config": {"name": "conv2d_77", "trainable": true, "dtype": "float32", "filters": 384, "kernel_size": [1, 1], "strides": [1, 1], "padding": "same", "data_format": "channels_last", "dilation_rate": [1, 1], "groups": 1, "activation": "linear", "use_bias": false, "kernel_initializer": {"class_name": "GlorotUniform", "config": {"seed": null}}, "bias_initializer": {"class_name": "Zeros", "config": {}}, "kernel_regularizer": null, "bias_regularizer": null, "activity_regularizer": null, "kernel_constraint": null, "bias_constraint": null}, "name": "conv2d_77", "inbound_nodes": [[["mixed8", 0, 0, {}]]]}, {"class_name": "Conv2D", "config": {"name": "conv2d_81", "trainable": true, "dtype": "float32", "filters": 384, "kernel_size": [3, 3], "strides": [1, 1], "padding": "same", "data_format": "channels_last", "dilation_rate": [1, 1], "groups": 1, "activation": "linear", "use_bias": false, "kernel_initializer": {"class_name": "GlorotUniform", "config": {"seed": null}}, "bias_initializer": {"class_name": "Zeros", "config": {}}, "kernel_regularizer": null, "bias_regularizer": null, "activity_regularizer": null, "kernel_constraint": null, "bias_constraint": null}, "name": "conv2d_81", "inbound_nodes": [[["activation_268", 0, 0, {}]]]}, {"class_name": "BatchNormalization", "config": {"name": "batch_normalization_80", "trainable": true, "dtype": "float32", "axis": [3], "momentum": 0.99, "epsilon": 0.001, "center": true, "scale": false, "beta_initializer": {"class_name": "Zeros", "config": {}}, "gamma_initializer": {"class_name": "Ones", "config": {}}, "moving_mean_initializer": {"class_name": "Zeros", "config": {}}, "moving_variance_initializer": {"class_name": "Ones", "config": {}}, "beta_regularizer": null, "gamma_regularizer": null, "beta_constraint": null, "gamma_constraint": null}, "name": "batch_normalization_80", "inbound_nodes": [[["conv2d_77", 0, 0, {}]]]}, {"class_name": "BatchNormalization", "config": {"name": "batch_normalization_84", "trainable": true, "dtype": "float32", "axis": [3], "momentum": 0.99, "epsilon": 0.001, "center": true, "scale": false, "beta_initializer": {"class_name": "Zeros", "config": {}}, "gamma_initializer": {"class_name": "Ones", "config": {}}, "moving_mean_initializer": {"class_name": "Zeros", "config": {}}, "moving_variance_initializer": {"class_name": "Ones", "config": {}}, "beta_regularizer": null, "gamma_regularizer": null, "beta_constraint": null, "gamma_constraint": null}, "name": "batch_normalization_84", "inbound_nodes": [[["conv2d_81", 0, 0, {}]]]}, {"class_name": "Activation", "config": {"name": "activation_265", "trainable": true, "dtype": "float32", "activation": "relu"}, "name": "activation_265", "inbound_nodes": [[["batch_normalization_80", 0, 0, {}]]]}, {"class_name": "Activation", "config": {"name": "activation_269", "trainable": true, "dtype": "float32", "activation": "relu"}, "name": "activation_269", "inbound_nodes": [[["batch_normalization_84", 0, 0, {}]]]}, {"class_name": "Conv2D", "config": {"name": "conv2d_78", "trainable": true, "dtype": "float32", "filters": 384, "kernel_size": [1, 3], "strides": [1, 1], "padding": "same", "data_format": "channels_last", "dilation_rate": [1, 1], "groups": 1, "activation": "linear", "use_bias": false, "kernel_initializer": {"class_name": "GlorotUniform", "config": {"seed": null}}, "bias_initializer": {"class_name": "Zeros", "config": {}}, "kernel_regularizer": null, "bias_regularizer": null, "activity_regularizer": null, "kernel_constraint": null, "bias_constraint": null}, "name": "conv2d_78", "inbound_nodes": [[["activation_265", 0, 0, {}]]]}, {"class_name": "Conv2D", "config": {"name": "conv2d_79", "trainable": true, "dtype": "float32", "filters": 384, "kernel_size": [3, 1], "strides": [1, 1], "padding": "same", "data_format": "channels_last", "dilation_rate": [1, 1], "groups": 1, "activation": "linear", "use_bias": false, "kernel_initializer": {"class_name": "GlorotUniform", "config": {"seed": null}}, "bias_initializer": {"class_name": "Zeros", "config": {}}, "kernel_regularizer": null, "bias_regularizer": null, "activity_regularizer": null, "kernel_constraint": null, "bias_constraint": null}, "name": "conv2d_79", "inbound_nodes": [[["activation_265", 0, 0, {}]]]}, {"class_name": "Conv2D", "config": {"name": "conv2d_82", "trainable": true, "dtype": "float32", "filters": 384, "kernel_size": [1, 3], "strides": [1, 1], "padding": "same", "data_format": "channels_last", "dilation_rate": [1, 1], "groups": 1, "activation": "linear", "use_bias": false, "kernel_initializer": {"class_name": "GlorotUniform", "config": {"seed": null}}, "bias_initializer": {"class_name": "Zeros", "config": {}}, "kernel_regularizer": null, "bias_regularizer": null, "activity_regularizer": null, "kernel_constraint": null, "bias_constraint": null}, "name": "conv2d_82", "inbound_nodes": [[["activation_269", 0, 0, {}]]]}, {"class_name": "Conv2D", "config": {"name": "conv2d_83", "trainable": true, "dtype": "float32", "filters": 384, "kernel_size": [3, 1], "strides": [1, 1], "padding": "same", "data_format": "channels_last", "dilation_rate": [1, 1], "groups": 1, "activation": "linear", "use_bias": false, "kernel_initializer": {"class_name": "GlorotUniform", "config": {"seed": null}}, "bias_initializer": {"class_name": "Zeros", "config": {}}, "kernel_regularizer": null, "bias_regularizer": null, "activity_regularizer": null, "kernel_constraint": null, "bias_constraint": null}, "name": "conv2d_83", "inbound_nodes": [[["activation_269", 0, 0, {}]]]}, {"class_name": "AveragePooling2D", "config": {"name": "average_pooling2d_7", "trainable": true, "dtype": "float32", "pool_size": [3, 3], "padding": "same", "strides": [1, 1], "data_format": "channels_last"}, "name": "average_pooling2d_7", "inbound_nodes": [[["mixed8", 0, 0, {}]]]}, {"class_name": "Conv2D", "config": {"name": "conv2d_76", "trainable": true, "dtype": "float32", "filters": 320, "kernel_size": [1, 1], "strides": [1, 1], "padding": "same", "data_format": "channels_last", "dilation_rate": [1, 1], "groups": 1, "activation": "linear", "use_bias": false, "kernel_initializer": {"class_name": "GlorotUniform", "config": {"seed": null}}, "bias_initializer": {"class_name": "Zeros", "config": {}}, "kernel_regularizer": null, "bias_regularizer": null, "activity_regularizer": null, "kernel_constraint": null, "bias_constraint": null}, "name": "conv2d_76", "inbound_nodes": [[["mixed8", 0, 0, {}]]]}, {"class_name": "BatchNormalization", "config": {"name": "batch_normalization_81", "trainable": true, "dtype": "float32", "axis": [3], "momentum": 0.99, "epsilon": 0.001, "center": true, "scale": false, "beta_initializer": {"class_name": "Zeros", "config": {}}, "gamma_initializer": {"class_name": "Ones", "config": {}}, "moving_mean_initializer": {"class_name": "Zeros", "config": {}}, "moving_variance_initializer": {"class_name": "Ones", "config": {}}, "beta_regularizer": null, "gamma_regularizer": null, "beta_constraint": null, "gamma_constraint": null}, "name": "batch_normalization_81", "inbound_nodes": [[["conv2d_78", 0, 0, {}]]]}, {"class_name": "BatchNormalization", "config": {"name": "batch_normalization_82", "trainable": true, "dtype": "float32", "axis": [3], "momentum": 0.99, "epsilon": 0.001, "center": true, "scale": false, "beta_initializer": {"class_name": "Zeros", "config": {}}, "gamma_initializer": {"class_name": "Ones", "config": {}}, "moving_mean_initializer": {"class_name": "Zeros", "config": {}}, "moving_variance_initializer": {"class_name": "Ones", "config": {}}, "beta_regularizer": null, "gamma_regularizer": null, "beta_constraint": null, "gamma_constraint": null}, "name": "batch_normalization_82", "inbound_nodes": [[["conv2d_79", 0, 0, {}]]]}, {"class_name": "BatchNormalization", "config": {"name": "batch_normalization_85", "trainable": true, "dtype": "float32", "axis": [3], "momentum": 0.99, "epsilon": 0.001, "center": true, "scale": false, "beta_initializer": {"class_name": "Zeros", "config": {}}, "gamma_initializer": {"class_name": "Ones", "config": {}}, "moving_mean_initializer": {"class_name": "Zeros", "config": {}}, "moving_variance_initializer": {"class_name": "Ones", "config": {}}, "beta_regularizer": null, "gamma_regularizer": null, "beta_constraint": null, "gamma_constraint": null}, "name": "batch_normalization_85", "inbound_nodes": [[["conv2d_82", 0, 0, {}]]]}, {"class_name": "BatchNormalization", "config": {"name": "batch_normalization_86", "trainable": true, "dtype": "float32", "axis": [3], "momentum": 0.99, "epsilon": 0.001, "center": true, "scale": false, "beta_initializer": {"class_name": "Zeros", "config": {}}, "gamma_initializer": {"class_name": "Ones", "config": {}}, "moving_mean_initializer": {"class_name": "Zeros", "config": {}}, "moving_variance_initializer": {"class_name": "Ones", "config": {}}, "beta_regularizer": null, "gamma_regularizer": null, "beta_constraint": null, "gamma_constraint": null}, "name": "batch_normalization_86", "inbound_nodes": [[["conv2d_83", 0, 0, {}]]]}, {"class_name": "Conv2D", "config": {"name": "conv2d_84", "trainable": true, "dtype": "float32", "filters": 192, "kernel_size": [1, 1], "strides": [1, 1], "padding": "same", "data_format": "channels_last", "dilation_rate": [1, 1], "groups": 1, "activation": "linear", "use_bias": false, "kernel_initializer": {"class_name": "GlorotUniform", "config": {"seed": null}}, "bias_initializer": {"class_name": "Zeros", "config": {}}, "kernel_regularizer": null, "bias_regularizer": null, "activity_regularizer": null, "kernel_constraint": null, "bias_constraint": null}, "name": "conv2d_84", "inbound_nodes": [[["average_pooling2d_7", 0, 0, {}]]]}, {"class_name": "BatchNormalization", "config": {"name": "batch_normalization_79", "trainable": true, "dtype": "float32", "axis": [3], "momentum": 0.99, "epsilon": 0.001, "center": true, "scale": false, "beta_initializer": {"class_name": "Zeros", "config": {}}, "gamma_initializer": {"class_name": "Ones", "config": {}}, "moving_mean_initializer": {"class_name": "Zeros", "config": {}}, "moving_variance_initializer": {"class_name": "Ones", "config": {}}, "beta_regularizer": null, "gamma_regularizer": null, "beta_constraint": null, "gamma_constraint": null}, "name": "batch_normalization_79", "inbound_nodes": [[["conv2d_76", 0, 0, {}]]]}, {"class_name": "Activation", "config": {"name": "activation_266", "trainable": true, "dtype": "float32", "activation": "relu"}, "name": "activation_266", "inbound_nodes": [[["batch_normalization_81", 0, 0, {}]]]}, {"class_name": "Activation", "config": {"name": "activation_267", "trainable": true, "dtype": "float32", "activation": "relu"}, "name": "activation_267", "inbound_nodes": [[["batch_normalization_82", 0, 0, {}]]]}, {"class_name": "Activation", "config": {"name": "activation_270", "trainable": true, "dtype": "float32", "activation": "relu"}, "name": "activation_270", "inbound_nodes": [[["batch_normalization_85", 0, 0, {}]]]}, {"class_name": "Activation", "config": {"name": "activation_271", "trainable": true, "dtype": "float32", "activation": "relu"}, "name": "activation_271", "inbound_nodes": [[["batch_normalization_86", 0, 0, {}]]]}, {"class_name": "BatchNormalization", "config": {"name": "batch_normalization_87", "trainable": true, "dtype": "float32", "axis": [3], "momentum": 0.99, "epsilon": 0.001, "center": true, "scale": false, "beta_initializer": {"class_name": "Zeros", "config": {}}, "gamma_initializer": {"class_name": "Ones", "config": {}}, "moving_mean_initializer": {"class_name": "Zeros", "config": {}}, "moving_variance_initializer": {"class_name": "Ones", "config": {}}, "beta_regularizer": null, "gamma_regularizer": null, "beta_constraint": null, "gamma_constraint": null}, "name": "batch_normalization_87", "inbound_nodes": [[["conv2d_84", 0, 0, {}]]]}, {"class_name": "Activation", "config": {"name": "activation_264", "trainable": true, "dtype": "float32", "activation": "relu"}, "name": "activation_264", "inbound_nodes": [[["batch_normalization_79", 0, 0, {}]]]}, {"class_name": "Concatenate", "config": {"name": "mixed9_0", "trainable": true, "dtype": "float32", "axis": 3}, "name": "mixed9_0", "inbound_nodes": [[["activation_266", 0, 0, {}], ["activation_267", 0, 0, {}]]]}, {"class_name": "Concatenate", "config": {"name": "concatenate_4", "trainable": true, "dtype": "float32", "axis": 3}, "name": "concatenate_4", "inbound_nodes": [[["activation_270", 0, 0, {}], ["activation_271", 0, 0, {}]]]}, {"class_name": "Activation", "config": {"name": "activation_272", "trainable": true, "dtype": "float32", "activation": "relu"}, "name": "activation_272", "inbound_nodes": [[["batch_normalization_87", 0, 0, {}]]]}, {"class_name": "Concatenate", "config": {"name": "mixed9", "trainable": true, "dtype": "float32", "axis": 3}, "name": "mixed9", "inbound_nodes": [[["activation_264", 0, 0, {}], ["mixed9_0", 0, 0, {}], ["concatenate_4", 0, 0, {}], ["activation_272", 0, 0, {}]]]}, {"class_name": "Conv2D", "config": {"name": "conv2d_89", "trainable": true, "dtype": "float32", "filters": 448, "kernel_size": [1, 1], "strides": [1, 1], "padding": "same", "data_format": "channels_last", "dilation_rate": [1, 1], "groups": 1, "activation": "linear", "use_bias": false, "kernel_initializer": {"class_name": "GlorotUniform", "config": {"seed": null}}, "bias_initializer": {"class_name": "Zeros", "config": {}}, "kernel_regularizer": null, "bias_regularizer": null, "activity_regularizer": null, "kernel_constraint": null, "bias_constraint": null}, "name": "conv2d_89", "inbound_nodes": [[["mixed9", 0, 0, {}]]]}, {"class_name": "BatchNormalization", "config": {"name": "batch_normalization_92", "trainable": true, "dtype": "float32", "axis": [3], "momentum": 0.99, "epsilon": 0.001, "center": true, "scale": false, "beta_initializer": {"class_name": "Zeros", "config": {}}, "gamma_initializer": {"class_name": "Ones", "config": {}}, "moving_mean_initializer": {"class_name": "Zeros", "config": {}}, "moving_variance_initializer": {"class_name": "Ones", "config": {}}, "beta_regularizer": null, "gamma_regularizer": null, "beta_constraint": null, "gamma_constraint": null}, "name": "batch_normalization_92", "inbound_nodes": [[["conv2d_89", 0, 0, {}]]]}, {"class_name": "Activation", "config": {"name": "activation_277", "trainable": true, "dtype": "float32", "activation": "relu"}, "name": "activation_277", "inbound_nodes": [[["batch_normalization_92", 0, 0, {}]]]}, {"class_name": "Conv2D", "config": {"name": "conv2d_86", "trainable": true, "dtype": "float32", "filters": 384, "kernel_size": [1, 1], "strides": [1, 1], "padding": "same", "data_format": "channels_last", "dilation_rate": [1, 1], "groups": 1, "activation": "linear", "use_bias": false, "kernel_initializer": {"class_name": "GlorotUniform", "config": {"seed": null}}, "bias_initializer": {"class_name": "Zeros", "config": {}}, "kernel_regularizer": null, "bias_regularizer": null, "activity_regularizer": null, "kernel_constraint": null, "bias_constraint": null}, "name": "conv2d_86", "inbound_nodes": [[["mixed9", 0, 0, {}]]]}, {"class_name": "Conv2D", "config": {"name": "conv2d_90", "trainable": true, "dtype": "float32", "filters": 384, "kernel_size": [3, 3], "strides": [1, 1], "padding": "same", "data_format": "channels_last", "dilation_rate": [1, 1], "groups": 1, "activation": "linear", "use_bias": false, "kernel_initializer": {"class_name": "GlorotUniform", "config": {"seed": null}}, "bias_initializer": {"class_name": "Zeros", "config": {}}, "kernel_regularizer": null, "bias_regularizer": null, "activity_regularizer": null, "kernel_constraint": null, "bias_constraint": null}, "name": "conv2d_90", "inbound_nodes": [[["activation_277", 0, 0, {}]]]}, {"class_name": "BatchNormalization", "config": {"name": "batch_normalization_89", "trainable": true, "dtype": "float32", "axis": [3], "momentum": 0.99, "epsilon": 0.001, "center": true, "scale": false, "beta_initializer": {"class_name": "Zeros", "config": {}}, "gamma_initializer": {"class_name": "Ones", "config": {}}, "moving_mean_initializer": {"class_name": "Zeros", "config": {}}, "moving_variance_initializer": {"class_name": "Ones", "config": {}}, "beta_regularizer": null, "gamma_regularizer": null, "beta_constraint": null, "gamma_constraint": null}, "name": "batch_normalization_89", "inbound_nodes": [[["conv2d_86", 0, 0, {}]]]}, {"class_name": "BatchNormalization", "config": {"name": "batch_normalization_93", "trainable": true, "dtype": "float32", "axis": [3], "momentum": 0.99, "epsilon": 0.001, "center": true, "scale": false, "beta_initializer": {"class_name": "Zeros", "config": {}}, "gamma_initializer": {"class_name": "Ones", "config": {}}, "moving_mean_initializer": {"class_name": "Zeros", "config": {}}, "moving_variance_initializer": {"class_name": "Ones", "config": {}}, "beta_regularizer": null, "gamma_regularizer": null, "beta_constraint": null, "gamma_constraint": null}, "name": "batch_normalization_93", "inbound_nodes": [[["conv2d_90", 0, 0, {}]]]}, {"class_name": "Activation", "config": {"name": "activation_274", "trainable": true, "dtype": "float32", "activation": "relu"}, "name": "activation_274", "inbound_nodes": [[["batch_normalization_89", 0, 0, {}]]]}, {"class_name": "Activation", "config": {"name": "activation_278", "trainable": true, "dtype": "float32", "activation": "relu"}, "name": "activation_278", "inbound_nodes": [[["batch_normalization_93", 0, 0, {}]]]}, {"class_name": "Conv2D", "config": {"name": "conv2d_87", "trainable": true, "dtype": "float32", "filters": 384, "kernel_size": [1, 3], "strides": [1, 1], "padding": "same", "data_format": "channels_last", "dilation_rate": [1, 1], "groups": 1, "activation": "linear", "use_bias": false, "kernel_initializer": {"class_name": "GlorotUniform", "config": {"seed": null}}, "bias_initializer": {"class_name": "Zeros", "config": {}}, "kernel_regularizer": null, "bias_regularizer": null, "activity_regularizer": null, "kernel_constraint": null, "bias_constraint": null}, "name": "conv2d_87", "inbound_nodes": [[["activation_274", 0, 0, {}]]]}, {"class_name": "Conv2D", "config": {"name": "conv2d_88", "trainable": true, "dtype": "float32", "filters": 384, "kernel_size": [3, 1], "strides": [1, 1], "padding": "same", "data_format": "channels_last", "dilation_rate": [1, 1], "groups": 1, "activation": "linear", "use_bias": false, "kernel_initializer": {"class_name": "GlorotUniform", "config": {"seed": null}}, "bias_initializer": {"class_name": "Zeros", "config": {}}, "kernel_regularizer": null, "bias_regularizer": null, "activity_regularizer": null, "kernel_constraint": null, "bias_constraint": null}, "name": "conv2d_88", "inbound_nodes": [[["activation_274", 0, 0, {}]]]}, {"class_name": "Conv2D", "config": {"name": "conv2d_91", "trainable": true, "dtype": "float32", "filters": 384, "kernel_size": [1, 3], "strides": [1, 1], "padding": "same", "data_format": "channels_last", "dilation_rate": [1, 1], "groups": 1, "activation": "linear", "use_bias": false, "kernel_initializer": {"class_name": "GlorotUniform", "config": {"seed": null}}, "bias_initializer": {"class_name": "Zeros", "config": {}}, "kernel_regularizer": null, "bias_regularizer": null, "activity_regularizer": null, "kernel_constraint": null, "bias_constraint": null}, "name": "conv2d_91", "inbound_nodes": [[["activation_278", 0, 0, {}]]]}, {"class_name": "Conv2D", "config": {"name": "conv2d_92", "trainable": true, "dtype": "float32", "filters": 384, "kernel_size": [3, 1], "strides": [1, 1], "padding": "same", "data_format": "channels_last", "dilation_rate": [1, 1], "groups": 1, "activation": "linear", "use_bias": false, "kernel_initializer": {"class_name": "GlorotUniform", "config": {"seed": null}}, "bias_initializer": {"class_name": "Zeros", "config": {}}, "kernel_regularizer": null, "bias_regularizer": null, "activity_regularizer": null, "kernel_constraint": null, "bias_constraint": null}, "name": "conv2d_92", "inbound_nodes": [[["activation_278", 0, 0, {}]]]}, {"class_name": "AveragePooling2D", "config": {"name": "average_pooling2d_8", "trainable": true, "dtype": "float32", "pool_size": [3, 3], "padding": "same", "strides": [1, 1], "data_format": "channels_last"}, "name": "average_pooling2d_8", "inbound_nodes": [[["mixed9", 0, 0, {}]]]}, {"class_name": "Conv2D", "config": {"name": "conv2d_85", "trainable": true, "dtype": "float32", "filters": 320, "kernel_size": [1, 1], "strides": [1, 1], "padding": "same", "data_format": "channels_last", "dilation_rate": [1, 1], "groups": 1, "activation": "linear", "use_bias": false, "kernel_initializer": {"class_name": "GlorotUniform", "config": {"seed": null}}, "bias_initializer": {"class_name": "Zeros", "config": {}}, "kernel_regularizer": null, "bias_regularizer": null, "activity_regularizer": null, "kernel_constraint": null, "bias_constraint": null}, "name": "conv2d_85", "inbound_nodes": [[["mixed9", 0, 0, {}]]]}, {"class_name": "BatchNormalization", "config": {"name": "batch_normalization_90", "trainable": true, "dtype": "float32", "axis": [3], "momentum": 0.99, "epsilon": 0.001, "center": true, "scale": false, "beta_initializer": {"class_name": "Zeros", "config": {}}, "gamma_initializer": {"class_name": "Ones", "config": {}}, "moving_mean_initializer": {"class_name": "Zeros", "config": {}}, "moving_variance_initializer": {"class_name": "Ones", "config": {}}, "beta_regularizer": null, "gamma_regularizer": null, "beta_constraint": null, "gamma_constraint": null}, "name": "batch_normalization_90", "inbound_nodes": [[["conv2d_87", 0, 0, {}]]]}, {"class_name": "BatchNormalization", "config": {"name": "batch_normalization_91", "trainable": true, "dtype": "float32", "axis": [3], "momentum": 0.99, "epsilon": 0.001, "center": true, "scale": false, "beta_initializer": {"class_name": "Zeros", "config": {}}, "gamma_initializer": {"class_name": "Ones", "config": {}}, "moving_mean_initializer": {"class_name": "Zeros", "config": {}}, "moving_variance_initializer": {"class_name": "Ones", "config": {}}, "beta_regularizer": null, "gamma_regularizer": null, "beta_constraint": null, "gamma_constraint": null}, "name": "batch_normalization_91", "inbound_nodes": [[["conv2d_88", 0, 0, {}]]]}, {"class_name": "BatchNormalization", "config": {"name": "batch_normalization_94", "trainable": true, "dtype": "float32", "axis": [3], "momentum": 0.99, "epsilon": 0.001, "center": true, "scale": false, "beta_initializer": {"class_name": "Zeros", "config": {}}, "gamma_initializer": {"class_name": "Ones", "config": {}}, "moving_mean_initializer": {"class_name": "Zeros", "config": {}}, "moving_variance_initializer": {"class_name": "Ones", "config": {}}, "beta_regularizer": null, "gamma_regularizer": null, "beta_constraint": null, "gamma_constraint": null}, "name": "batch_normalization_94", "inbound_nodes": [[["conv2d_91", 0, 0, {}]]]}, {"class_name": "BatchNormalization", "config": {"name": "batch_normalization_95", "trainable": true, "dtype": "float32", "axis": [3], "momentum": 0.99, "epsilon": 0.001, "center": true, "scale": false, "beta_initializer": {"class_name": "Zeros", "config": {}}, "gamma_initializer": {"class_name": "Ones", "config": {}}, "moving_mean_initializer": {"class_name": "Zeros", "config": {}}, "moving_variance_initializer": {"class_name": "Ones", "config": {}}, "beta_regularizer": null, "gamma_regularizer": null, "beta_constraint": null, "gamma_constraint": null}, "name": "batch_normalization_95", "inbound_nodes": [[["conv2d_92", 0, 0, {}]]]}, {"class_name": "Conv2D", "config": {"name": "conv2d_93", "trainable": true, "dtype": "float32", "filters": 192, "kernel_size": [1, 1], "strides": [1, 1], "padding": "same", "data_format": "channels_last", "dilation_rate": [1, 1], "groups": 1, "activation": "linear", "use_bias": false, "kernel_initializer": {"class_name": "GlorotUniform", "config": {"seed": null}}, "bias_initializer": {"class_name": "Zeros", "config": {}}, "kernel_regularizer": null, "bias_regularizer": null, "activity_regularizer": null, "kernel_constraint": null, "bias_constraint": null}, "name": "conv2d_93", "inbound_nodes": [[["average_pooling2d_8", 0, 0, {}]]]}, {"class_name": "BatchNormalization", "config": {"name": "batch_normalization_88", "trainable": true, "dtype": "float32", "axis": [3], "momentum": 0.99, "epsilon": 0.001, "center": true, "scale": false, "beta_initializer": {"class_name": "Zeros", "config": {}}, "gamma_initializer": {"class_name": "Ones", "config": {}}, "moving_mean_initializer": {"class_name": "Zeros", "config": {}}, "moving_variance_initializer": {"class_name": "Ones", "config": {}}, "beta_regularizer": null, "gamma_regularizer": null, "beta_constraint": null, "gamma_constraint": null}, "name": "batch_normalization_88", "inbound_nodes": [[["conv2d_85", 0, 0, {}]]]}, {"class_name": "Activation", "config": {"name": "activation_275", "trainable": true, "dtype": "float32", "activation": "relu"}, "name": "activation_275", "inbound_nodes": [[["batch_normalization_90", 0, 0, {}]]]}, {"class_name": "Activation", "config": {"name": "activation_276", "trainable": true, "dtype": "float32", "activation": "relu"}, "name": "activation_276", "inbound_nodes": [[["batch_normalization_91", 0, 0, {}]]]}, {"class_name": "Activation", "config": {"name": "activation_279", "trainable": true, "dtype": "float32", "activation": "relu"}, "name": "activation_279", "inbound_nodes": [[["batch_normalization_94", 0, 0, {}]]]}, {"class_name": "Activation", "config": {"name": "activation_280", "trainable": true, "dtype": "float32", "activation": "relu"}, "name": "activation_280", "inbound_nodes": [[["batch_normalization_95", 0, 0, {}]]]}, {"class_name": "BatchNormalization", "config": {"name": "batch_normalization_96", "trainable": true, "dtype": "float32", "axis": [3], "momentum": 0.99, "epsilon": 0.001, "center": true, "scale": false, "beta_initializer": {"class_name": "Zeros", "config": {}}, "gamma_initializer": {"class_name": "Ones", "config": {}}, "moving_mean_initializer": {"class_name": "Zeros", "config": {}}, "moving_variance_initializer": {"class_name": "Ones", "config": {}}, "beta_regularizer": null, "gamma_regularizer": null, "beta_constraint": null, "gamma_constraint": null}, "name": "batch_normalization_96", "inbound_nodes": [[["conv2d_93", 0, 0, {}]]]}, {"class_name": "Activation", "config": {"name": "activation_273", "trainable": true, "dtype": "float32", "activation": "relu"}, "name": "activation_273", "inbound_nodes": [[["batch_normalization_88", 0, 0, {}]]]}, {"class_name": "Concatenate", "config": {"name": "mixed9_1", "trainable": true, "dtype": "float32", "axis": 3}, "name": "mixed9_1", "inbound_nodes": [[["activation_275", 0, 0, {}], ["activation_276", 0, 0, {}]]]}, {"class_name": "Concatenate", "config": {"name": "concatenate_5", "trainable": true, "dtype": "float32", "axis": 3}, "name": "concatenate_5", "inbound_nodes": [[["activation_279", 0, 0, {}], ["activation_280", 0, 0, {}]]]}, {"class_name": "Activation", "config": {"name": "activation_281", "trainable": true, "dtype": "float32", "activation": "relu"}, "name": "activation_281", "inbound_nodes": [[["batch_normalization_96", 0, 0, {}]]]}, {"class_name": "Concatenate", "config": {"name": "mixed10", "trainable": true, "dtype": "float32", "axis": 3}, "name": "mixed10", "inbound_nodes": [[["activation_273", 0, 0, {}], ["mixed9_1", 0, 0, {}], ["concatenate_5", 0, 0, {}], ["activation_281", 0, 0, {}]]]}], "input_layers": [["input_4", 0, 0]], "output_layers": [["mixed10", 0, 0]]}}, {"class_name": "GlobalAveragePooling2D", "config": {"name": "global_average_pooling2d_3", "trainable": true, "dtype": "float32", "data_format": "channels_last", "keepdims": false}}, {"class_name": "Dense", "config": {"name": "dense_6", "trainable": true, "dtype": "float32", "units": 256, "activation": "relu", "use_bias": true, "kernel_initializer": {"class_name": "GlorotUniform", "config": {"seed": null}}, "bias_initializer": {"class_name": "Zeros", "config": {}}, "kernel_regularizer": null, "bias_regularizer": null, "activity_regularizer": null, "kernel_constraint": null, "bias_constraint": null}}, {"class_name": "BatchNormalization", "config": {"name": "batch_normalization_97", "trainable": true, "dtype": "float32", "axis": [1], "momentum": 0.99, "epsilon": 0.001, "center": true, "scale": true, "beta_initializer": {"class_name": "Zeros", "config": {}}, "gamma_initializer": {"class_name": "Ones", "config": {}}, "moving_mean_initializer": {"class_name": "Zeros", "config": {}}, "moving_variance_initializer": {"class_name": "Ones", "config": {}}, "beta_regularizer": null, "gamma_regularizer": null, "beta_constraint": null, "gamma_constraint": null}}, {"class_name": "Dropout", "config": {"name": "dropout_3", "trainable": true, "dtype": "float32", "rate": 0.5, "noise_shape": null, "seed": null}}, {"class_name": "Dense", "config": {"name": "dense_7", "trainable": true, "dtype": "float32", "units": 5, "activation": "softmax", "use_bias": true, "kernel_initializer": {"class_name": "GlorotUniform", "config": {"seed": null}}, "bias_initializer": {"class_name": "Zeros", "config": {}}, "kernel_regularizer": null, "bias_regularizer": null, "activity_regularizer": null, "kernel_constraint": null, "bias_constraint": null}}]}}, "training_config": {"loss": "categorical_crossentropy", "metrics": [[{"class_name": "MeanMetricWrapper", "config": {"name": "accuracy", "dtype": "float32", "fn": "categorical_accuracy"}}]], "weighted_metrics": null, "loss_weights": null, "optimizer_config": {"class_name": "Adam", "config": {"name": "Adam", "learning_rate": 0.0010000000474974513, "decay": 0.0, "beta_1": 0.8999999761581421, "beta_2": 0.9990000128746033, "epsilon": 1e-07, "amsgrad": false}}}}, "weightsManifest": [{"paths": ["group1-shard1of22.bin", "group1-shard2of22.bin", "group1-shard3of22.bin", "group1-shard4of22.bin", "group1-shard5of22.bin", "group1-shard6of22.bin", "group1-shard7of22.bin", "group1-shard8of22.bin", "group1-shard9of22.bin", "group1-shard10of22.bin", "group1-shard11of22.bin", "group1-shard12of22.bin", "group1-shard13of22.bin", "group1-shard14of22.bin", "group1-shard15of22.bin", "group1-shard16of22.bin", "group1-shard17of22.bin", "group1-shard18of22.bin", "group1-shard19of22.bin", "group1-shard20of22.bin", "group1-shard21of22.bin", "group1-shard22of22.bin"], "weights": [{"name": "batch_normalization_97/gamma", "shape": [256], "dtype": "float32"}, {"name": "batch_normalization_97/beta", "shape": [256], "dtype": "float32"}, {"name": "batch_normalization_97/moving_mean", "shape": [256], "dtype": "float32"}, {"name": "batch_normalization_97/moving_variance", "shape": [256], "dtype": "float32"}, {"name": "dense_6/kernel", "shape": [2048, 256], "dtype": "float32"}, {"name": "dense_6/bias", "shape": [256], "dtype": "float32"}, {"name": "dense_7/kernel", "shape": [256, 5], "dtype": "float32"}, {"name": "dense_7/bias", "shape": [5], "dtype": "float32"}, {"name": "conv2d/kernel", "shape": [3, 3, 3, 32], "dtype": "float32"}, {"name": "batch_normalization_3/beta", "shape": [32], "dtype": "float32"}, {"name": "conv2d_1/kernel", "shape": [3, 3, 32, 32], "dtype": "float32"}, {"name": "batch_normalization_4/beta", "shape": [32], "dtype": "float32"}, {"name": "conv2d_2/kernel", "shape": [3, 3, 32, 64], "dtype": "float32"}, {"name": "batch_normalization_5/beta", "shape": [64], "dtype": "float32"}, {"name": "conv2d_3/kernel", "shape": [1, 1, 64, 80], "dtype": "float32"}, {"name": "batch_normalization_6/beta", "shape": [80], "dtype": "float32"}, {"name": "conv2d_4/kernel", "shape": [3, 3, 80, 192], "dtype": "float32"}, {"name": "batch_normalization_7/beta", "shape": [192], "dtype": "float32"}, {"name": "conv2d_8/kernel", "shape": [1, 1, 192, 64], "dtype": "float32"}, {"name": "batch_normalization_11/beta", "shape": [64], "dtype": "float32"}, {"name": "conv2d_6/kernel", "shape": [1, 1, 192, 48], "dtype": "float32"}, {"name": "conv2d_9/kernel", "shape": [3, 3, 64, 96], "dtype": "float32"}, {"name": "batch_normalization_9/beta", "shape": [48], "dtype": "float32"}, {"name": "batch_normalization_12/beta", "shape": [96], "dtype": "float32"}, {"name": "conv2d_5/kernel", "shape": [1, 1, 192, 64], "dtype": "float32"}, {"name": "conv2d_7/kernel", "shape": [5, 5, 48, 64], "dtype": "float32"}, {"name": "conv2d_10/kernel", "shape": [3, 3, 96, 96], "dtype": "float32"}, {"name": "conv2d_11/kernel", "shape": [1, 1, 192, 32], "dtype": "float32"}, {"name": "batch_normalization_8/beta", "shape": [64], "dtype": "float32"}, {"name": "batch_normalization_10/beta", "shape": [64], "dtype": "float32"}, {"name": "batch_normalization_13/beta", "shape": [96], "dtype": "float32"}, {"name": "batch_normalization_14/beta", "shape": [32], "dtype": "float32"}, {"name": "conv2d_15/kernel", "shape": [1, 1, 256, 64], "dtype": "float32"}, {"name": "batch_normalization_18/beta", "shape": [64], "dtype": "float32"}, {"name": "conv2d_13/kernel", "shape": [1, 1, 256, 48], "dtype": "float32"}, {"name": "conv2d_16/kernel", "shape": [3, 3, 64, 96], "dtype": "float32"}, {"name": "batch_normalization_16/beta", "shape": [48], "dtype": "float32"}, {"name": "batch_normalization_19/beta", "shape": [96], "dtype": "float32"}, {"name": "conv2d_12/kernel", "shape": [1, 1, 256, 64], "dtype": "float32"}, {"name": "conv2d_14/kernel", "shape": [5, 5, 48, 64], "dtype": "float32"}, {"name": "conv2d_17/kernel", "shape": [3, 3, 96, 96], "dtype": "float32"}, {"name": "conv2d_18/kernel", "shape": [1, 1, 256, 64], "dtype": "float32"}, {"name": "batch_normalization_15/beta", "shape": [64], "dtype": "float32"}, {"name": "batch_normalization_17/beta", "shape": [64], "dtype": "float32"}, {"name": "batch_normalization_20/beta", "shape": [96], "dtype": "float32"}, {"name": "batch_normalization_21/beta", "shape": [64], "dtype": "float32"}, {"name": "conv2d_22/kernel", "shape": [1, 1, 288, 64], "dtype": "float32"}, {"name": "batch_normalization_25/beta", "shape": [64], "dtype": "float32"}, {"name": "conv2d_20/kernel", "shape": [1, 1, 288, 48], "dtype": "float32"}, {"name": "conv2d_23/kernel", "shape": [3, 3, 64, 96], "dtype": "float32"}, {"name": "batch_normalization_23/beta", "shape": [48], "dtype": "float32"}, {"name": "batch_normalization_26/beta", "shape": [96], "dtype": "float32"}, {"name": "conv2d_19/kernel", "shape": [1, 1, 288, 64], "dtype": "float32"}, {"name": "conv2d_21/kernel", "shape": [5, 5, 48, 64], "dtype": "float32"}, {"name": "conv2d_24/kernel", "shape": [3, 3, 96, 96], "dtype": "float32"}, {"name": "conv2d_25/kernel", "shape": [1, 1, 288, 64], "dtype": "float32"}, {"name": "batch_normalization_22/beta", "shape": [64], "dtype": "float32"}, {"name": "batch_normalization_24/beta", "shape": [64], "dtype": "float32"}, {"name": "batch_normalization_27/beta", "shape": [96], "dtype": "float32"}, {"name": "batch_normalization_28/beta", "shape": [64], "dtype": "float32"}, {"name": "conv2d_27/kernel", "shape": [1, 1, 288, 64], "dtype": "float32"}, {"name": "batch_normalization_30/beta", "shape": [64], "dtype": "float32"}, {"name": "conv2d_28/kernel", "shape": [3, 3, 64, 96], "dtype": "float32"}, {"name": "batch_normalization_31/beta", "shape": [96], "dtype": "float32"}, {"name": "conv2d_26/kernel", "shape": [3, 3, 288, 384], "dtype": "float32"}, {"name": "conv2d_29/kernel", "shape": [3, 3, 96, 96], "dtype": "float32"}, {"name": "batch_normalization_29/beta", "shape": [384], "dtype": "float32"}, {"name": "batch_normalization_32/beta", "shape": [96], "dtype": "float32"}, {"name": "conv2d_34/kernel", "shape": [1, 1, 768, 128], "dtype": "float32"}, {"name": "batch_normalization_37/beta", "shape": [128], "dtype": "float32"}, {"name": "conv2d_35/kernel", "shape": [7, 1, 128, 128], "dtype": "float32"}, {"name": "batch_normalization_38/beta", "shape": [128], "dtype": "float32"}, {"name": "conv2d_31/kernel", "shape": [1, 1, 768, 128], "dtype": "float32"}, {"name": "conv2d_36/kernel", "shape": [1, 7, 128, 128], "dtype": "float32"}, {"name": "batch_normalization_34/beta", "shape": [128], "dtype": "float32"}, {"name": "batch_normalization_39/beta", "shape": [128], "dtype": "float32"}, {"name": "conv2d_32/kernel", "shape": [1, 7, 128, 128], "dtype": "float32"}, {"name": "conv2d_37/kernel", "shape": [7, 1, 128, 128], "dtype": "float32"}, {"name": "batch_normalization_35/beta", "shape": [128], "dtype": "float32"}, {"name": "batch_normalization_40/beta", "shape": [128], "dtype": "float32"}, {"name": "conv2d_30/kernel", "shape": [1, 1, 768, 192], "dtype": "float32"}, {"name": "conv2d_33/kernel", "shape": [7, 1, 128, 192], "dtype": "float32"}, {"name": "conv2d_38/kernel", "shape": [1, 7, 128, 192], "dtype": "float32"}, {"name": "conv2d_39/kernel", "shape": [1, 1, 768, 192], "dtype": "float32"}, {"name": "batch_normalization_33/beta", "shape": [192], "dtype": "float32"}, {"name": "batch_normalization_36/beta", "shape": [192], "dtype": "float32"}, {"name": "batch_normalization_41/beta", "shape": [192], "dtype": "float32"}, {"name": "batch_normalization_42/beta", "shape": [192], "dtype": "float32"}, {"name": "conv2d_44/kernel", "shape": [1, 1, 768, 160], "dtype": "float32"}, {"name": "batch_normalization_47/beta", "shape": [160], "dtype": "float32"}, {"name": "conv2d_45/kernel", "shape": [7, 1, 160, 160], "dtype": "float32"}, {"name": "batch_normalization_48/beta", "shape": [160], "dtype": "float32"}, {"name": "conv2d_41/kernel", "shape": [1, 1, 768, 160], "dtype": "float32"}, {"name": "conv2d_46/kernel", "shape": [1, 7, 160, 160], "dtype": "float32"}, {"name": "batch_normalization_44/beta", "shape": [160], "dtype": "float32"}, {"name": "batch_normalization_49/beta", "shape": [160], "dtype": "float32"}, {"name": "conv2d_42/kernel", "shape": [1, 7, 160, 160], "dtype": "float32"}, {"name": "conv2d_47/kernel", "shape": [7, 1, 160, 160], "dtype": "float32"}, {"name": "batch_normalization_45/beta", "shape": [160], "dtype": "float32"}, {"name": "batch_normalization_50/beta", "shape": [160], "dtype": "float32"}, {"name": "conv2d_40/kernel", "shape": [1, 1, 768, 192], "dtype": "float32"}, {"name": "conv2d_43/kernel", "shape": [7, 1, 160, 192], "dtype": "float32"}, {"name": "conv2d_48/kernel", "shape": [1, 7, 160, 192], "dtype": "float32"}, {"name": "conv2d_49/kernel", "shape": [1, 1, 768, 192], "dtype": "float32"}, {"name": "batch_normalization_43/beta", "shape": [192], "dtype": "float32"}, {"name": "batch_normalization_46/beta", "shape": [192], "dtype": "float32"}, {"name": "batch_normalization_51/beta", "shape": [192], "dtype": "float32"}, {"name": "batch_normalization_52/beta", "shape": [192], "dtype": "float32"}, {"name": "conv2d_54/kernel", "shape": [1, 1, 768, 160], "dtype": "float32"}, {"name": "batch_normalization_57/beta", "shape": [160], "dtype": "float32"}, {"name": "conv2d_55/kernel", "shape": [7, 1, 160, 160], "dtype": "float32"}, {"name": "batch_normalization_58/beta", "shape": [160], "dtype": "float32"}, {"name": "conv2d_51/kernel", "shape": [1, 1, 768, 160], "dtype": "float32"}, {"name": "conv2d_56/kernel", "shape": [1, 7, 160, 160], "dtype": "float32"}, {"name": "batch_normalization_54/beta", "shape": [160], "dtype": "float32"}, {"name": "batch_normalization_59/beta", "shape": [160], "dtype": "float32"}, {"name": "conv2d_52/kernel", "shape": [1, 7, 160, 160], "dtype": "float32"}, {"name": "conv2d_57/kernel", "shape": [7, 1, 160, 160], "dtype": "float32"}, {"name": "batch_normalization_55/beta", "shape": [160], "dtype": "float32"}, {"name": "batch_normalization_60/beta", "shape": [160], "dtype": "float32"}, {"name": "conv2d_50/kernel", "shape": [1, 1, 768, 192], "dtype": "float32"}, {"name": "conv2d_53/kernel", "shape": [7, 1, 160, 192], "dtype": "float32"}, {"name": "conv2d_58/kernel", "shape": [1, 7, 160, 192], "dtype": "float32"}, {"name": "conv2d_59/kernel", "shape": [1, 1, 768, 192], "dtype": "float32"}, {"name": "batch_normalization_53/beta", "shape": [192], "dtype": "float32"}, {"name": "batch_normalization_56/beta", "shape": [192], "dtype": "float32"}, {"name": "batch_normalization_61/beta", "shape": [192], "dtype": "float32"}, {"name": "batch_normalization_62/beta", "shape": [192], "dtype": "float32"}, {"name": "conv2d_64/kernel", "shape": [1, 1, 768, 192], "dtype": "float32"}, {"name": "batch_normalization_67/beta", "shape": [192], "dtype": "float32"}, {"name": "conv2d_65/kernel", "shape": [7, 1, 192, 192], "dtype": "float32"}, {"name": "batch_normalization_68/beta", "shape": [192], "dtype": "float32"}, {"name": "conv2d_61/kernel", "shape": [1, 1, 768, 192], "dtype": "float32"}, {"name": "conv2d_66/kernel", "shape": [1, 7, 192, 192], "dtype": "float32"}, {"name": "batch_normalization_64/beta", "shape": [192], "dtype": "float32"}, {"name": "batch_normalization_69/beta", "shape": [192], "dtype": "float32"}, {"name": "conv2d_62/kernel", "shape": [1, 7, 192, 192], "dtype": "float32"}, {"name": "conv2d_67/kernel", "shape": [7, 1, 192, 192], "dtype": "float32"}, {"name": "batch_normalization_65/beta", "shape": [192], "dtype": "float32"}, {"name": "batch_normalization_70/beta", "shape": [192], "dtype": "float32"}, {"name": "conv2d_60/kernel", "shape": [1, 1, 768, 192], "dtype": "float32"}, {"name": "conv2d_63/kernel", "shape": [7, 1, 192, 192], "dtype": "float32"}, {"name": "conv2d_68/kernel", "shape": [1, 7, 192, 192], "dtype": "float32"}, {"name": "conv2d_69/kernel", "shape": [1, 1, 768, 192], "dtype": "float32"}, {"name": "batch_normalization_63/beta", "shape": [192], "dtype": "float32"}, {"name": "batch_normalization_66/beta", "shape": [192], "dtype": "float32"}, {"name": "batch_normalization_71/beta", "shape": [192], "dtype": "float32"}, {"name": "batch_normalization_72/beta", "shape": [192], "dtype": "float32"}, {"name": "conv2d_72/kernel", "shape": [1, 1, 768, 192], "dtype": "float32"}, {"name": "batch_normalization_75/beta", "shape": [192], "dtype": "float32"}, {"name": "conv2d_73/kernel", "shape": [1, 7, 192, 192], "dtype": "float32"}, {"name": "batch_normalization_76/beta", "shape": [192], "dtype": "float32"}, {"name": "conv2d_70/kernel", "shape": [1, 1, 768, 192], "dtype": "float32"}, {"name": "conv2d_74/kernel", "shape": [7, 1, 192, 192], "dtype": "float32"}, {"name": "batch_normalization_73/beta", "shape": [192], "dtype": "float32"}, {"name": "batch_normalization_77/beta", "shape": [192], "dtype": "float32"}, {"name": "conv2d_71/kernel", "shape": [3, 3, 192, 320], "dtype": "float32"}, {"name": "conv2d_75/kernel", "shape": [3, 3, 192, 192], "dtype": "float32"}, {"name": "batch_normalization_74/beta", "shape": [320], "dtype": "float32"}, {"name": "batch_normalization_78/beta", "shape": [192], "dtype": "float32"}, {"name": "conv2d_80/kernel", "shape": [1, 1, 1280, 448], "dtype": "float32"}, {"name": "batch_normalization_83/beta", "shape": [448], "dtype": "float32"}, {"name": "conv2d_77/kernel", "shape": [1, 1, 1280, 384], "dtype": "float32"}, {"name": "conv2d_81/kernel", "shape": [3, 3, 448, 384], "dtype": "float32"}, {"name": "batch_normalization_80/beta", "shape": [384], "dtype": "float32"}, {"name": "batch_normalization_84/beta", "shape": [384], "dtype": "float32"}, {"name": "conv2d_78/kernel", "shape": [1, 3, 384, 384], "dtype": "float32"}, {"name": "conv2d_79/kernel", "shape": [3, 1, 384, 384], "dtype": "float32"}, {"name": "conv2d_82/kernel", "shape": [1, 3, 384, 384], "dtype": "float32"}, {"name": "conv2d_83/kernel", "shape": [3, 1, 384, 384], "dtype": "float32"}, {"name": "conv2d_76/kernel", "shape": [1, 1, 1280, 320], "dtype": "float32"}, {"name": "batch_normalization_81/beta", "shape": [384], "dtype": "float32"}, {"name": "batch_normalization_82/beta", "shape": [384], "dtype": "float32"}, {"name": "batch_normalization_85/beta", "shape": [384], "dtype": "float32"}, {"name": "batch_normalization_86/beta", "shape": [384], "dtype": "float32"}, {"name": "conv2d_84/kernel", "shape": [1, 1, 1280, 192], "dtype": "float32"}, {"name": "batch_normalization_79/beta", "shape": [320], "dtype": "float32"}, {"name": "batch_normalization_87/beta", "shape": [192], "dtype": "float32"}, {"name": "conv2d_89/kernel", "shape": [1, 1, 2048, 448], "dtype": "float32"}, {"name": "batch_normalization_92/beta", "shape": [448], "dtype": "float32"}, {"name": "conv2d_86/kernel", "shape": [1, 1, 2048, 384], "dtype": "float32"}, {"name": "conv2d_90/kernel", "shape": [3, 3, 448, 384], "dtype": "float32"}, {"name": "batch_normalization_89/beta", "shape": [384], "dtype": "float32"}, {"name": "batch_normalization_93/beta", "shape": [384], "dtype": "float32"}, {"name": "conv2d_87/kernel", "shape": [1, 3, 384, 384], "dtype": "float32"}, {"name": "conv2d_88/kernel", "shape": [3, 1, 384, 384], "dtype": "float32"}, {"name": "conv2d_91/kernel", "shape": [1, 3, 384, 384], "dtype": "float32"}, {"name": "conv2d_92/kernel", "shape": [3, 1, 384, 384], "dtype": "float32"}, {"name": "conv2d_85/kernel", "shape": [1, 1, 2048, 320], "dtype": "float32"}, {"name": "batch_normalization_90/beta", "shape": [384], "dtype": "float32"}, {"name": "batch_normalization_91/beta", "shape": [384], "dtype": "float32"}, {"name": "batch_normalization_94/beta", "shape": [384], "dtype": "float32"}, {"name": "batch_normalization_95/beta", "shape": [384], "dtype": "float32"}, {"name": "conv2d_93/kernel", "shape": [1, 1, 2048, 192], "dtype": "float32"}, {"name": "batch_normalization_88/beta", "shape": [320], "dtype": "float32"}, {"name": "batch_normalization_96/beta", "shape": [192], "dtype": "float32"}, {"name": "batch_normalization_3/moving_mean", "shape": [32], "dtype": "float32"}, {"name": "batch_normalization_3/moving_variance", "shape": [32], "dtype": "float32"}, {"name": "batch_normalization_4/moving_mean", "shape": [32], "dtype": "float32"}, {"name": "batch_normalization_4/moving_variance", "shape": [32], "dtype": "float32"}, {"name": "batch_normalization_5/moving_mean", "shape": [64], "dtype": "float32"}, {"name": "batch_normalization_5/moving_variance", "shape": [64], "dtype": "float32"}, {"name": "batch_normalization_6/moving_mean", "shape": [80], "dtype": "float32"}, {"name": "batch_normalization_6/moving_variance", "shape": [80], "dtype": "float32"}, {"name": "batch_normalization_7/moving_mean", "shape": [192], "dtype": "float32"}, {"name": "batch_normalization_7/moving_variance", "shape": [192], "dtype": "float32"}, {"name": "batch_normalization_11/moving_mean", "shape": [64], "dtype": "float32"}, {"name": "batch_normalization_11/moving_variance", "shape": [64], "dtype": "float32"}, {"name": "batch_normalization_9/moving_mean", "shape": [48], "dtype": "float32"}, {"name": "batch_normalization_9/moving_variance", "shape": [48], "dtype": "float32"}, {"name": "batch_normalization_12/moving_mean", "shape": [96], "dtype": "float32"}, {"name": "batch_normalization_12/moving_variance", "shape": [96], "dtype": "float32"}, {"name": "batch_normalization_8/moving_mean", "shape": [64], "dtype": "float32"}, {"name": "batch_normalization_8/moving_variance", "shape": [64], "dtype": "float32"}, {"name": "batch_normalization_10/moving_mean", "shape": [64], "dtype": "float32"}, {"name": "batch_normalization_10/moving_variance", "shape": [64], "dtype": "float32"}, {"name": "batch_normalization_13/moving_mean", "shape": [96], "dtype": "float32"}, {"name": "batch_normalization_13/moving_variance", "shape": [96], "dtype": "float32"}, {"name": "batch_normalization_14/moving_mean", "shape": [32], "dtype": "float32"}, {"name": "batch_normalization_14/moving_variance", "shape": [32], "dtype": "float32"}, {"name": "batch_normalization_18/moving_mean", "shape": [64], "dtype": "float32"}, {"name": "batch_normalization_18/moving_variance", "shape": [64], "dtype": "float32"}, {"name": "batch_normalization_16/moving_mean", "shape": [48], "dtype": "float32"}, {"name": "batch_normalization_16/moving_variance", "shape": [48], "dtype": "float32"}, {"name": "batch_normalization_19/moving_mean", "shape": [96], "dtype": "float32"}, {"name": "batch_normalization_19/moving_variance", "shape": [96], "dtype": "float32"}, {"name": "batch_normalization_15/moving_mean", "shape": [64], "dtype": "float32"}, {"name": "batch_normalization_15/moving_variance", "shape": [64], "dtype": "float32"}, {"name": "batch_normalization_17/moving_mean", "shape": [64], "dtype": "float32"}, {"name": "batch_normalization_17/moving_variance", "shape": [64], "dtype": "float32"}, {"name": "batch_normalization_20/moving_mean", "shape": [96], "dtype": "float32"}, {"name": "batch_normalization_20/moving_variance", "shape": [96], "dtype": "float32"}, {"name": "batch_normalization_21/moving_mean", "shape": [64], "dtype": "float32"}, {"name": "batch_normalization_21/moving_variance", "shape": [64], "dtype": "float32"}, {"name": "batch_normalization_25/moving_mean", "shape": [64], "dtype": "float32"}, {"name": "batch_normalization_25/moving_variance", "shape": [64], "dtype": "float32"}, {"name": "batch_normalization_23/moving_mean", "shape": [48], "dtype": "float32"}, {"name": "batch_normalization_23/moving_variance", "shape": [48], "dtype": "float32"}, {"name": "batch_normalization_26/moving_mean", "shape": [96], "dtype": "float32"}, {"name": "batch_normalization_26/moving_variance", "shape": [96], "dtype": "float32"}, {"name": "batch_normalization_22/moving_mean", "shape": [64], "dtype": "float32"}, {"name": "batch_normalization_22/moving_variance", "shape": [64], "dtype": "float32"}, {"name": "batch_normalization_24/moving_mean", "shape": [64], "dtype": "float32"}, {"name": "batch_normalization_24/moving_variance", "shape": [64], "dtype": "float32"}, {"name": "batch_normalization_27/moving_mean", "shape": [96], "dtype": "float32"}, {"name": "batch_normalization_27/moving_variance", "shape": [96], "dtype": "float32"}, {"name": "batch_normalization_28/moving_mean", "shape": [64], "dtype": "float32"}, {"name": "batch_normalization_28/moving_variance", "shape": [64], "dtype": "float32"}, {"name": "batch_normalization_30/moving_mean", "shape": [64], "dtype": "float32"}, {"name": "batch_normalization_30/moving_variance", "shape": [64], "dtype": "float32"}, {"name": "batch_normalization_31/moving_mean", "shape": [96], "dtype": "float32"}, {"name": "batch_normalization_31/moving_variance", "shape": [96], "dtype": "float32"}, {"name": "batch_normalization_29/moving_mean", "shape": [384], "dtype": "float32"}, {"name": "batch_normalization_29/moving_variance", "shape": [384], "dtype": "float32"}, {"name": "batch_normalization_32/moving_mean", "shape": [96], "dtype": "float32"}, {"name": "batch_normalization_32/moving_variance", "shape": [96], "dtype": "float32"}, {"name": "batch_normalization_37/moving_mean", "shape": [128], "dtype": "float32"}, {"name": "batch_normalization_37/moving_variance", "shape": [128], "dtype": "float32"}, {"name": "batch_normalization_38/moving_mean", "shape": [128], "dtype": "float32"}, {"name": "batch_normalization_38/moving_variance", "shape": [128], "dtype": "float32"}, {"name": "batch_normalization_34/moving_mean", "shape": [128], "dtype": "float32"}, {"name": "batch_normalization_34/moving_variance", "shape": [128], "dtype": "float32"}, {"name": "batch_normalization_39/moving_mean", "shape": [128], "dtype": "float32"}, {"name": "batch_normalization_39/moving_variance", "shape": [128], "dtype": "float32"}, {"name": "batch_normalization_35/moving_mean", "shape": [128], "dtype": "float32"}, {"name": "batch_normalization_35/moving_variance", "shape": [128], "dtype": "float32"}, {"name": "batch_normalization_40/moving_mean", "shape": [128], "dtype": "float32"}, {"name": "batch_normalization_40/moving_variance", "shape": [128], "dtype": "float32"}, {"name": "batch_normalization_33/moving_mean", "shape": [192], "dtype": "float32"}, {"name": "batch_normalization_33/moving_variance", "shape": [192], "dtype": "float32"}, {"name": "batch_normalization_36/moving_mean", "shape": [192], "dtype": "float32"}, {"name": "batch_normalization_36/moving_variance", "shape": [192], "dtype": "float32"}, {"name": "batch_normalization_41/moving_mean", "shape": [192], "dtype": "float32"}, {"name": "batch_normalization_41/moving_variance", "shape": [192], "dtype": "float32"}, {"name": "batch_normalization_42/moving_mean", "shape": [192], "dtype": "float32"}, {"name": "batch_normalization_42/moving_variance", "shape": [192], "dtype": "float32"}, {"name": "batch_normalization_47/moving_mean", "shape": [160], "dtype": "float32"}, {"name": "batch_normalization_47/moving_variance", "shape": [160], "dtype": "float32"}, {"name": "batch_normalization_48/moving_mean", "shape": [160], "dtype": "float32"}, {"name": "batch_normalization_48/moving_variance", "shape": [160], "dtype": "float32"}, {"name": "batch_normalization_44/moving_mean", "shape": [160], "dtype": "float32"}, {"name": "batch_normalization_44/moving_variance", "shape": [160], "dtype": "float32"}, {"name": "batch_normalization_49/moving_mean", "shape": [160], "dtype": "float32"}, {"name": "batch_normalization_49/moving_variance", "shape": [160], "dtype": "float32"}, {"name": "batch_normalization_45/moving_mean", "shape": [160], "dtype": "float32"}, {"name": "batch_normalization_45/moving_variance", "shape": [160], "dtype": "float32"}, {"name": "batch_normalization_50/moving_mean", "shape": [160], "dtype": "float32"}, {"name": "batch_normalization_50/moving_variance", "shape": [160], "dtype": "float32"}, {"name": "batch_normalization_43/moving_mean", "shape": [192], "dtype": "float32"}, {"name": "batch_normalization_43/moving_variance", "shape": [192], "dtype": "float32"}, {"name": "batch_normalization_46/moving_mean", "shape": [192], "dtype": "float32"}, {"name": "batch_normalization_46/moving_variance", "shape": [192], "dtype": "float32"}, {"name": "batch_normalization_51/moving_mean", "shape": [192], "dtype": "float32"}, {"name": "batch_normalization_51/moving_variance", "shape": [192], "dtype": "float32"}, {"name": "batch_normalization_52/moving_mean", "shape": [192], "dtype": "float32"}, {"name": "batch_normalization_52/moving_variance", "shape": [192], "dtype": "float32"}, {"name": "batch_normalization_57/moving_mean", "shape": [160], "dtype": "float32"}, {"name": "batch_normalization_57/moving_variance", "shape": [160], "dtype": "float32"}, {"name": "batch_normalization_58/moving_mean", "shape": [160], "dtype": "float32"}, {"name": "batch_normalization_58/moving_variance", "shape": [160], "dtype": "float32"}, {"name": "batch_normalization_54/moving_mean", "shape": [160], "dtype": "float32"}, {"name": "batch_normalization_54/moving_variance", "shape": [160], "dtype": "float32"}, {"name": "batch_normalization_59/moving_mean", "shape": [160], "dtype": "float32"}, {"name": "batch_normalization_59/moving_variance", "shape": [160], "dtype": "float32"}, {"name": "batch_normalization_55/moving_mean", "shape": [160], "dtype": "float32"}, {"name": "batch_normalization_55/moving_variance", "shape": [160], "dtype": "float32"}, {"name": "batch_normalization_60/moving_mean", "shape": [160], "dtype": "float32"}, {"name": "batch_normalization_60/moving_variance", "shape": [160], "dtype": "float32"}, {"name": "batch_normalization_53/moving_mean", "shape": [192], "dtype": "float32"}, {"name": "batch_normalization_53/moving_variance", "shape": [192], "dtype": "float32"}, {"name": "batch_normalization_56/moving_mean", "shape": [192], "dtype": "float32"}, {"name": "batch_normalization_56/moving_variance", "shape": [192], "dtype": "float32"}, {"name": "batch_normalization_61/moving_mean", "shape": [192], "dtype": "float32"}, {"name": "batch_normalization_61/moving_variance", "shape": [192], "dtype": "float32"}, {"name": "batch_normalization_62/moving_mean", "shape": [192], "dtype": "float32"}, {"name": "batch_normalization_62/moving_variance", "shape": [192], "dtype": "float32"}, {"name": "batch_normalization_67/moving_mean", "shape": [192], "dtype": "float32"}, {"name": "batch_normalization_67/moving_variance", "shape": [192], "dtype": "float32"}, {"name": "batch_normalization_68/moving_mean", "shape": [192], "dtype": "float32"}, {"name": "batch_normalization_68/moving_variance", "shape": [192], "dtype": "float32"}, {"name": "batch_normalization_64/moving_mean", "shape": [192], "dtype": "float32"}, {"name": "batch_normalization_64/moving_variance", "shape": [192], "dtype": "float32"}, {"name": "batch_normalization_69/moving_mean", "shape": [192], "dtype": "float32"}, {"name": "batch_normalization_69/moving_variance", "shape": [192], "dtype": "float32"}, {"name": "batch_normalization_65/moving_mean", "shape": [192], "dtype": "float32"}, {"name": "batch_normalization_65/moving_variance", "shape": [192], "dtype": "float32"}, {"name": "batch_normalization_70/moving_mean", "shape": [192], "dtype": "float32"}, {"name": "batch_normalization_70/moving_variance", "shape": [192], "dtype": "float32"}, {"name": "batch_normalization_63/moving_mean", "shape": [192], "dtype": "float32"}, {"name": "batch_normalization_63/moving_variance", "shape": [192], "dtype": "float32"}, {"name": "batch_normalization_66/moving_mean", "shape": [192], "dtype": "float32"}, {"name": "batch_normalization_66/moving_variance", "shape": [192], "dtype": "float32"}, {"name": "batch_normalization_71/moving_mean", "shape": [192], "dtype": "float32"}, {"name": "batch_normalization_71/moving_variance", "shape": [192], "dtype": "float32"}, {"name": "batch_normalization_72/moving_mean", "shape": [192], "dtype": "float32"}, {"name": "batch_normalization_72/moving_variance", "shape": [192], "dtype": "float32"}, {"name": "batch_normalization_75/moving_mean", "shape": [192], "dtype": "float32"}, {"name": "batch_normalization_75/moving_variance", "shape": [192], "dtype": "float32"}, {"name": "batch_normalization_76/moving_mean", "shape": [192], "dtype": "float32"}, {"name": "batch_normalization_76/moving_variance", "shape": [192], "dtype": "float32"}, {"name": "batch_normalization_73/moving_mean", "shape": [192], "dtype": "float32"}, {"name": "batch_normalization_73/moving_variance", "shape": [192], "dtype": "float32"}, {"name": "batch_normalization_77/moving_mean", "shape": [192], "dtype": "float32"}, {"name": "batch_normalization_77/moving_variance", "shape": [192], "dtype": "float32"}, {"name": "batch_normalization_74/moving_mean", "shape": [320], "dtype": "float32"}, {"name": "batch_normalization_74/moving_variance", "shape": [320], "dtype": "float32"}, {"name": "batch_normalization_78/moving_mean", "shape": [192], "dtype": "float32"}, {"name": "batch_normalization_78/moving_variance", "shape": [192], "dtype": "float32"}, {"name": "batch_normalization_83/moving_mean", "shape": [448], "dtype": "float32"}, {"name": "batch_normalization_83/moving_variance", "shape": [448], "dtype": "float32"}, {"name": "batch_normalization_80/moving_mean", "shape": [384], "dtype": "float32"}, {"name": "batch_normalization_80/moving_variance", "shape": [384], "dtype": "float32"}, {"name": "batch_normalization_84/moving_mean", "shape": [384], "dtype": "float32"}, {"name": "batch_normalization_84/moving_variance", "shape": [384], "dtype": "float32"}, {"name": "batch_normalization_81/moving_mean", "shape": [384], "dtype": "float32"}, {"name": "batch_normalization_81/moving_variance", "shape": [384], "dtype": "float32"}, {"name": "batch_normalization_82/moving_mean", "shape": [384], "dtype": "float32"}, {"name": "batch_normalization_82/moving_variance", "shape": [384], "dtype": "float32"}, {"name": "batch_normalization_85/moving_mean", "shape": [384], "dtype": "float32"}, {"name": "batch_normalization_85/moving_variance", "shape": [384], "dtype": "float32"}, {"name": "batch_normalization_86/moving_mean", "shape": [384], "dtype": "float32"}, {"name": "batch_normalization_86/moving_variance", "shape": [384], "dtype": "float32"}, {"name": "batch_normalization_79/moving_mean", "shape": [320], "dtype": "float32"}, {"name": "batch_normalization_79/moving_variance", "shape": [320], "dtype": "float32"}, {"name": "batch_normalization_87/moving_mean", "shape": [192], "dtype": "float32"}, {"name": "batch_normalization_87/moving_variance", "shape": [192], "dtype": "float32"}, {"name": "batch_normalization_92/moving_mean", "shape": [448], "dtype": "float32"}, {"name": "batch_normalization_92/moving_variance", "shape": [448], "dtype": "float32"}, {"name": "batch_normalization_89/moving_mean", "shape": [384], "dtype": "float32"}, {"name": "batch_normalization_89/moving_variance", "shape": [384], "dtype": "float32"}, {"name": "batch_normalization_93/moving_mean", "shape": [384], "dtype": "float32"}, {"name": "batch_normalization_93/moving_variance", "shape": [384], "dtype": "float32"}, {"name": "batch_normalization_90/moving_mean", "shape": [384], "dtype": "float32"}, {"name": "batch_normalization_90/moving_variance", "shape": [384], "dtype": "float32"}, {"name": "batch_normalization_91/moving_mean", "shape": [384], "dtype": "float32"}, {"name": "batch_normalization_91/moving_variance", "shape": [384], "dtype": "float32"}, {"name": "batch_normalization_94/moving_mean", "shape": [384], "dtype": "float32"}, {"name": "batch_normalization_94/moving_variance", "shape": [384], "dtype": "float32"}, {"name": "batch_normalization_95/moving_mean", "shape": [384], "dtype": "float32"}, {"name": "batch_normalization_95/moving_variance", "shape": [384], "dtype": "float32"}, {"name": "batch_normalization_88/moving_mean", "shape": [320], "dtype": "float32"}, {"name": "batch_normalization_88/moving_variance", "shape": [320], "dtype": "float32"}, {"name": "batch_normalization_96/moving_mean", "shape": [192], "dtype": "float32"}, {"name": "batch_normalization_96/moving_variance", "shape": [192], "dtype": "float32"}]}]}